CIFAR_CNN.pth (torch, 194558 bytes, 28 tensors)

conv_block_1.0.weight f4 [32, 3, 3, 3]
000000 c1 2f c2 bd 2e 90 84 bd 98 6a 18 3e ea 6c 53 3e
       -0.094817646 -0.064728126 0.14884412 0.20647016
000010 0f 68 cc be 32 35 ee be 16 49 4e be c2 d1 ab be
       -0.3992314 -0.4652496 -0.20145068 -0.3355847
000020 bd eb ed be fb c7 aa 3e 84 52 bc 3e e7 df 3d 3f
       -0.46468917 0.33355698 0.36781704 0.7416977
000030 f6 5c d4 3e 16 37 89 3e 17 a8 0d be f1 24 45 3e
       0.41477174 0.2679984 -0.13833652 0.19252373
000040 f2 bb b2 3d 0d 95 10 be fd a0 7b be 28 a5 92 be
       0.08727254 -0.14119358 -0.24573131 -0.2864163
000050 4b 3e 6c 3e 78 a2 b6 bd 4d 6f f4 be 72 bb 9d be
       0.23070638 -0.08917707 -0.47741166 -0.30807072
000060 8c 6e 19 3e b7 ad 17 3e c5 21 58 be dd 34 5f bd
       0.14983577 0.1481236 -0.21106632 -0.054493774
000070 4a f7 8a bd 4c 86 d8 3c 1e c5 29 3d 2e 84 02 3f
       -0.06785448 0.026431225 0.04144775 0.5098294
000080 92 4e 06 bf 3a ba f3 3d b0 b7 18 3e fc c6 09 be
       -0.5246364 0.11900754 0.14913821 -0.13454813
000090 d4 4a e4 3e f0 42 01 3d b8 2c 61 be 19 89 9d 3c
       0.4458834 0.031557977 -0.21989715 0.019230412
0000a0 b9 2e c6 3e 3b 53 14 bf ee a5 28 3e e7 88 73 bd
       0.38707522 -0.579395 0.16469547 -0.059456732
0000b0 95 52 99 be b0 cc 81 be fa f3 59 bd 1f 46 db 3e
       -0.29945818 -0.25351477 -0.05321119 0.42826936
0000c0 6c cf 81 be c9 60 e8 3e 0c 11 0c bc e6 ce 0e bf
       -0.25353563 0.4538634 -0.008548986 -0.5578445
0000d0 a3 c9 89 bc 47 a9 8d 3e eb 3b 5c 3e 3e 67 76 3e
       -0.01681978 0.2766821 0.21507232 0.24062821
0000e0 ca c4 ab be 8a 35 16 3f 11 01 75 be e1 6f da be
       -0.33548576 0.58675444 -0.23926188 -0.42663482
0000f0 f4 42 03 3f d5 ef e7 3e 58 d8 84 3d 85 b6 9b be
       0.5127404 0.45300165 0.06486577 -0.3041269
000100 9c c7 a0 bc 53 e1 33 bd b3 9a 18 bf 11 d6 65 bf
       -0.019626431 -0.043916058 -0.5961105 -0.89779764
000110 67 34 09 be 59 1d 01 bf 1e 30 92 be e7 e2 66 3d
       -0.13398896 -0.50435406 -0.28552336 0.056368735
000120 79 01 30 bd 8b 18 13 3f 33 f1 2e 3d 33 1b 95 3c
       -0.042970154 0.57459325 0.042710494 0.018201446
000130 23 57 ec bd 9f d6 4b 3e c5 d0 e9 bd 0c 41 ff 3e
       -0.115400575 0.1990609 -0.11416773 0.49854314
000140 c6 b0 e7 3e 98 30 34 be 6b ef 76 bd 4d d1 a4 3e
       0.45252055 -0.17596662 -0.06028692 0.32190934
000150 9b f8 cd be f0 f6 45 be c0 2d 29 3f 07 a8 ee 3e
       -0.40228733 -0.1933248 0.66085434 0.4661257
000160 96 a9 c6 bd 47 96 9b be d7 e9 32 be 0f 38 8e be
       -0.09700315 -0.3038809 -0.17472015 -0.27777144
000170 09 b6 bc 3e aa b9 ad be e1 50 17 bf 6f d8 28 3f
       0.36857632 -0.33930713 -0.59107786 0.6595525
000180 ac e4 0c 3f 43 06 93 bd 0b 84 eb be 78 c5 80 3c
       0.55036426 -0.07178929 -0.45999178 0.01571916
000190 10 00 7c bd dc c6 79 3d 06 bd 88 be f8 66 ba be
       -0.061523497 0.060980663 -0.26706713 -0.36406684
0001a0 22 ac 28 3f 99 b3 06 3f d2 9b 35 bd 13 b1 9c be
       0.65887654 0.52617794 -0.044338055 -0.30603847
0001b0 af 09 05 bf 82 91 f7 bd f2 a0 19 3d db 73 18 3d
       -0.519679 -0.120883 0.037507005 0.037219863
0001c0 5e 2a 79 be 9a 4a 7f 3e 3b 29 e3 3e f1 06 27 3e
       -0.24332568 0.24930802 0.44367394 0.16311242
0001d0 dd 2f 68 3d 5e f5 26 be 93 87 ac be 04 26 a0 3e
       0.05668627 -0.16304538 -0.33697185 0.31279004
0001e0 6f 8b ce bd 80 13 9d be 95 cd f0 ba 00 44 20 3e
       -0.100851886 -0.3067894 -0.0018371815 0.1565094
0001f0 aa 19 b0 3d 28 22 82 3e e4 dd fa be 6c 70 35 bd
       0.08598645 0.25416684 -0.48997414 -0.044296667
000200 9d ea 00 3f 4e 43 10 3d f3 bf 2d be dd 9e b4 3e
       0.5035799 0.035220437 -0.16967754 0.35277453
000210 93 42 29 bd 05 5f a6 3d 88 d1 30 3e 39 6d 9f bc
       -0.041323256 0.08123592 0.1726743 -0.019461261
000220 12 76 c3 3d 2a 7b 4d 3f 93 f8 3b be 17 c2 19 bf
       0.095440045 0.8026606 -0.18356542 -0.6006178
000230 b3 b8 68 3f 2e 67 2b bf 43 90 dd be d0 8d 44 3d
       0.9090683 -0.66954315 -0.43274125 0.047986805
000240 af f1 32 3c c4 67 27 bf 36 a4 97 bc 24 04 d4 3e
       0.01092188 -0.6539271 -0.018510919 0.4140941
000250 33 95 2e bf 7d 52 ca 3e 6f e0 e5 3d b4 1b 71 3e
       -0.6819641 0.3951606 0.11224448 0.23545724
000260 93 d8 3e 3e 1b f6 6c 3e 3c 80 ef be 1f 92 af be
       0.18637304 0.23140757 -0.46777523 -0.3429117
000270 ec a3 0e 3f 50 c9 c3 be 4d 6e 53 3d 43 2c 16 3f
       0.55718875 -0.38239527 0.051618863 0.5866129
000280 ec 25 0a 3b 46 70 1b be 30 99 2f be e3 bc a9 3d
       0.0021079732 -0.15179548 -0.1714828 0.082879804
000290 94 fa ee 3d 3d ba bc be 51 15 6c be 70 0d 4c 3e
       0.11668888 -0.3686084 -0.23055007 0.19927001
0002a0 6b e4 13 bf 6b 6d e3 bd 1d 9c a2 3e 9c 5a 67 be
       -0.57770413 -0.11104854 0.3175973 -0.22593158
0002b0 33 19 5a 3c 30 ca 44 3d b3 30 cc be a9 bc 01 be
       0.013311672 0.048044384 -0.39880905 -0.12669624
0002c0 6a 26 a2 3e dd 30 e0 bd f6 37 0e 3d 32 21 15 3f
       0.31669933 -0.1094682 0.034721337 0.5825378
0002d0 b5 90 06 3e aa 73 ba bd 11 98 c9 be fc 86 dc bd
       0.13141139 -0.091040924 -0.3937383 -0.10767934
0002e0 60 8e 73 be 38 27 a5 bd d8 e7 10 3e fe e3 b0 3e
       -0.2378478 -0.08064121 0.14150941 0.34548944
0002f0 8d 3e 44 3e 3f 7d 7b 3e e9 34 03 3f c2 10 de 3e
       0.19164486 0.24559496 0.5125261 0.4337216
000300 54 4e 0e bd a0 7f 97 3e 53 f1 16 3e 9d d7 9e be
       -0.03474267 0.29589558 0.14740495 -0.31023875
000310 31 3f ef be 64 15 96 be fc bb fe 3e 98 c3 47 3e
       -0.467279 -0.29313195 0.49752796 0.19508207
000320 01 ea da 3d 18 8f 81 bd a1 53 aa 3d a2 c6 ab be
       0.10689164 -0.06326121 0.08316732 -0.33549982
000330 b7 46 bf 3d 12 82 c1 be a6 1b 7c 3b a1 07 8c 3e
       0.0933966 -0.37794548 0.0038468628 0.2734957
000340 5b 73 67 3e 35 37 3f 3d 9b 3b 0d bd 29 f9 2b be
       0.22602598 0.04668351 -0.034480672 -0.16794266
000350 b3 76 fe be 5b e2 55 3d cd 2e 9e be a9 87 fc bc
       -0.49699935 0.052217823 -0.3089508 -0.030826407
000360 9a c1 b2 3d 48 19 8e 3e 81 ba e4 3e 90 36 7a 3e
       0.08728333 0.27753663 0.4467354 0.24434876
000370 c2 92 d2 3e ef e5 ca 3d 2b f3 17 be 5d 3e 48 3e
       0.41127592 0.099071376 -0.14838855 0.1955504
000380 12 53 b7 bd 92 34 ee bc 9e 01 f9 bd 45 b1 e6 bd
       -0.08951391 -0.029077802 -0.121585116 -0.1126428
000390 bc 8b 2e be 6e 9e 07 be 83 bb fd be 47 fd ac be
       -0.17045492 -0.1324403 -0.49557123 -0.33786985
0003a0 cb 1d 52 3c 84 f6 50 be a4 21 24 3e eb ab 85 3e
       0.012824486 -0.20406538 0.16028458 0.26107726
0003b0 e4 a9 87 3e a2 16 24 be db a4 4e be cb 6e b3 be
       0.26496804 -0.16024259 -0.20180075 -0.35045466
0003c0 c2 4d e0 be 16 03 86 be 7d 77 c3 be 4f 72 79 3d
       -0.43809325 -0.2617423 -0.381771 0.06090003
0003d0 85 ba b3 3e 4a db ff 3d d3 ff 2c bd b6 8c 45 3e
       0.3510324 0.12492998 -0.04223616 0.19291958
0003e0 9c 84 d2 bd 89 3d 20 bf 70 b1 ab be cf b6 33 be
       -0.102791995 -0.62593895 -0.33533812 -0.17550205
0003f0 e9 0a 0d 3e fb f8 3d 3d ef c1 f7 bb 1c 16 cc 3e
       0.13773693 0.046380024 -0.0075609605 0.39860618

conv_block_1.0.bias f4 [32]
000000 1a e6 5c 3a 44 b6 39 3e 4d bb a6 bd c6 2c fc bd
       0.0008426622 0.18135935 -0.081411935 -0.12313227
000010 aa bf 46 3c 10 eb 34 be 2b 3e 8c 3c d0 bb 3d 3e
       0.012130657 -0.17667794 0.017119488 0.18528676
000020 68 c3 87 bd 9e 15 31 be 92 39 b8 bc 57 ce b0 3c
       -0.06629068 -0.17293403 -0.02248839 0.021582766
000030 4c ca 26 be 64 f4 08 3e 5f 17 22 3e 9e 89 19 3c
       -0.16288108 0.13374478 0.15829228 0.009371189
000040 52 c5 40 3e 2b 97 3b 3e 33 78 21 be 8d 91 cc 3d
       0.18825272 0.18319385 -0.15768509 0.09988699
000050 81 a0 b6 bc d7 17 15 3d 78 d5 e6 3d 35 f8 fb bc
       -0.022293331 0.03639969 0.11271185 -0.030758003
000060 70 16 10 bd 55 ca 3a 3e 03 b5 40 bd ea 81 44 3e
       -0.035177648 0.18241246 -0.047047626 0.19190183
000070 40 0a 41 3e e6 cb 39 bd d4 0f 96 bd 0e 71 37 3e
       0.18851566 -0.04536047 -0.07327238 0.1791422

conv_block_1.1.weight f4 [32]
000000 13 07 71 3f 28 9a 51 3f 88 cb 6a 3f 6f 5c 80 3f
       0.9415142 0.8187585 0.91716814 1.0028208
000010 74 1a 74 3f 22 20 96 3f 5e 5d 80 3f 6a 8d 4c 3f
       0.95352864 1.1728556 1.0028493 0.7990328
000020 aa e1 81 3f f7 22 6c 3f ee 23 44 3f d8 91 61 3f
       1.0146992 0.9224085 0.76617324 0.88113165
000030 57 48 ac 3f 82 1c 95 3f 3d 6c 7e 3f 0d ac bf 3f
       1.3459576 1.1649325 0.9938391 1.4974381
000040 1e fa 91 3f 62 21 75 3f 4e 4f 81 3f 8c 8c 60 3f
       1.1404455 0.95754063 1.0102327 0.8771446
000050 d7 0d 2b 3f 44 94 43 3f 45 f2 b2 3f 20 67 8c 3f
       0.6681799 0.7639811 1.3980185 1.0968971
000060 68 b5 44 3f e7 3d 5b 3f 48 8d 4b 3f 8a 0e 90 3f
       0.76839304 0.8564133 0.79512453 1.1254437
000070 46 ac 69 3f 75 81 42 3f 2a 9e 17 3f f8 44 75 3f
       0.91278493 0.75978786 0.59225714 0.9580836

conv_block_1.1.bias f4 [32]
000000 42 fc 5e be 7d 7e 0d 3e 82 51 bc bb 68 ae 1b 3f
       -0.21775916 0.13817783 -0.005747021 0.60813
000010 bf e4 d0 bd 2e ae 32 3f 61 90 74 be 67 eb a9 3e
       -0.1019988 0.6979703 -0.23883201 0.3318741
000020 9f b6 13 bf bf 7f 9a be 5b 16 a7 bc a4 24 82 be
       -0.5770053 -0.30175588 -0.020396402 -0.2541858
000030 da e7 f0 3e dc 46 07 3f 73 c1 de bd b2 98 21 3f
       0.4705189 0.528425 -0.10876741 0.6312362
000040 e9 ab 23 bf 42 5c a6 be 48 a9 af 3c 6a 1f 9c 3e
       -0.6393419 -0.32492262 0.021443024 0.30492717
000050 c8 f3 17 be ea 5b 86 3e 86 be 42 3f d0 a9 d6 3e
       -0.14839089 0.26242 0.76071966 0.41926432
000060 ba 83 73 bd 80 57 af be 42 13 47 3e 2d 2a 00 3f
       -0.059451796 -0.34246445 0.1944094 0.50064355
000070 0a 3a c6 3d 83 33 6b bd 40 88 0d bc a5 69 3b bd
       0.09679039 -0.057422172 -0.008638442 -0.045755047

conv_block_1.1.running_mean f4 [32]
000000 41 a6 8c be 9d f7 47 3e 7e b2 5e be ed 06 ed bd
       -0.27470592 0.1952805 -0.21747777 -0.115735866
000010 05 d9 2c 3e af 66 4b be ea 63 a3 be a7 cf a7 3e
       0.16879661 -0.1986339 -0.31912166 0.32775614
000020 08 fc 08 bf 24 7f 01 3e 20 fd 28 bd 2a f7 7d bd
       -0.5350957 0.12646157 -0.041257024 -0.062003292
000030 fe 57 53 be 97 74 d9 3d b9 36 05 bc 72 3d e1 bc
       -0.20639035 0.10617941 -0.008130723 -0.02749512
000040 84 dc 87 be b0 0d db be 3b 87 9c be 5c 81 ed 3d
       -0.26535428 -0.4278388 -0.30571923 0.11596939
000050 07 86 5e 3e b9 87 cc 3b c6 19 13 3e d7 55 02 bd
       0.21730815 0.0062417653 0.143653 -0.031820145
000060 93 c3 67 3e 28 97 2e 3f ef 6e f1 bd 79 d8 00 3e
       0.226332 0.68199396 -0.11788737 0.12582578
000070 4d c9 55 3e fa 7c c7 be 9c 92 19 3b a0 e6 9f 3d
       0.20877571 -0.38962537 0.0023433333 0.0780766

conv_block_1.1.running_var f4 [32]
000000 55 85 d3 3d a8 c6 d6 3c ed 6f 6f 3d 16 f9 91 3d
       0.103281654 0.026217774 0.05845635 0.071275875
000010 73 84 ee 3d 0d c9 9f 3d b0 96 fd 3d c4 df 42 3e
       0.116463564 0.07802019 0.12382257 0.19030672
000020 5d 91 4c 3e c1 0f 40 3d d0 3e 02 3e 0d 4d 01 3e
       0.19977327 0.046890024 0.12719274 0.12627049
000030 dd 61 b2 3d 58 c3 a5 3d 3f b6 3b 3d 77 1f b9 3d
       0.08710072 0.080938995 0.0458281 0.090392046
000040 1b 46 d2 3d 8a fb 1a 3e 13 5a 85 3e 8a e9 c7 3d
       0.10267278 0.15135017 0.26045284 0.09761341
000050 4f a3 c8 3d 5e 00 51 3d 86 01 cb 3d c6 fc 86 3d
       0.09796774 0.05102574 0.099124 0.065911815
000060 be 6f a0 3d e2 1d 9b 3d 48 b4 c1 3d ab 92 3b 3e
       0.07833813 0.07574059 0.09458214 0.18317668
000070 af d5 c2 3d d5 47 15 3e 21 00 26 3e e7 a6 6e 3e
       0.09513413 0.14578183 0.16210987 0.23305856

conv_block_1.3.weight f4 [32, 32, 3, 3]
000000 f6 2a 8a bc 34 39 4c bd 95 c9 57 bd 6d 00 30 be
       -0.016866188 -0.04985924 -0.052682478 -0.17187662
000010 d3 37 af bd 10 2f 18 3d b8 fb bf bd d6 b9 e6 bd
       -0.085555695 0.037154257 -0.093741834 -0.11265914
000020 bc d4 3f be b2 aa 0a 3d 6f 98 01 be 0d 10 84 3c
       -0.18733495 0.033854194 -0.12655805 0.016120935
000030 bd 8f 6b bd 6b d0 bb 3d 4c 30 6a bd f0 53 93 3d
       -0.057510126 0.09170612 -0.057174966 0.07193744
000040 18 88 eb ba 55 86 b1 bd 34 ba 1f be 9d 16 0f bd
       -0.0017969636 -0.086682 -0.15598375 -0.034933675
000050 b0 6c 01 be 19 23 46 bd 93 81 00 be 9a 06 4b bc
       -0.12639117 -0.048373315 -0.12549429 -0.012391711
000060 10 bd 3b bd 2f ac f2 3c 83 04 3b bd 34 75 8b be
       -0.0458346 0.02962312 -0.0456586 -0.27237856
000070 a4 b5 e7 3c d2 33 20 3e 8c d0 1e 3e 53 f4 45 bd
       0.028284855 0.15644768 0.15509242 -0.04832871
000080 c1 5d 3e be e1 df 84 bd 9c 8e e6 bd ba 23 55 3d
       -0.18590452 -0.06488014 -0.11257669 0.052036025
000090 fb ca 54 bc 3c 78 e0 bd ce 8c 88 bd 86 ec 9d 3c
       -0.012987847 -0.10960433 -0.06667481 0.019277822
0000a0 77 f4 21 be 01 53 49 bc 15 b0 cd bd fa c7 55 3a
       -0.15815912 -0.012287856 -0.100433506 0.0008155104
0000b0 7a c7 46 bd fd 93 97 3d 57 b7 64 3d f8 e6 de bc
       -0.04853008 0.074012734 0.05583891 -0.027209744
0000c0 65 ff 2c 3e 08 32 f9 bd ce 52 9c 3d d6 85 66 bd
       0.168943 -0.12167746 0.07632981 -0.05627998
0000d0 8c 1e 02 bd 5c 1d c4 bd 34 da fb 3c 58 a9 3b 3d
       -0.031767413 -0.09575912 0.030743696 0.045815796
0000e0 55 47 a7 ba a6 0c c4 3d 48 94 5d 3d 27 2f 60 bd
       -0.0012762347 0.09572725 0.05409649 -0.054732468
0000f0 28 db 4d 3e 38 13 c1 3d c2 09 53 be 14 22 ca 3c
       0.20103133 0.09427494 -0.20609191 0.024674453
000100 fa b6 98 bd 48 f7 1f bd a6 66 57 be 6c 02 42 be
       -0.07456775 -0.039054185 -0.21035251 -0.18946236
000110 57 e8 3e be f3 e5 17 bd 6c da 3c bd 29 12 80 bd
       -0.18643318 -0.03708453 -0.04610674 -0.06253464
000120 53 31 9b 3d 51 d6 83 3d 6d e2 4a bd 15 ce e9 bd
       0.07577767 0.06437362 -0.049532343 -0.1141626
000130 f3 51 18 ba d4 7e ed bc 2c 49 2c bc 4e f6 90 bd
       -0.0005810551 -0.02899114 -0.010515492 -0.07078229
000140 2c da 78 3d 53 da 96 bc da ed 73 3d ed 2e 77 bd
       0.06075494 -0.018414652 0.059553005 -0.060347486
000150 a7 a9 70 3b 4a 43 61 3d 05 c7 b8 3d c3 55 ec 3d
       0.0036722214 0.054995812 0.09022335 0.11539795
000160 14 f7 e6 3c 9e 0f 11 bd 10 63 87 bd 09 f3 4c be
       0.028193988 -0.035415284 -0.066106915 -0.20014586
000170 b3 b7 b3 3d f0 ae f5 3c ac bc 75 bc 0e 71 82 3d
       0.08775272 0.029990643 -0.014998596 0.0636922
000180 62 91 9c 3c 49 5b 2e 3e b6 42 e2 bd da 5a 24 bd
       0.019112293 0.1702701 -0.1104788 -0.040125705
000190 9b ed ff bd 71 fc 6c bd a4 d1 1e 3d 66 56 6e bd
       -0.124964915 -0.057857934 0.038774148 -0.058187865
0001a0 14 6d 71 bd b0 df c4 bc ea 35 df bd 9d 73 d1 3c
       -0.058941916 -0.024032444 -0.10898955 0.025567824
0001b0 32 32 f1 3d 2d 31 a3 3e 1d 70 2b 3d f4 f2 df 3c
       0.11777152 0.31873456 0.041854966 0.027337529
0001c0 a1 82 d1 be 05 62 37 be e5 81 6f be 3d d6 b4 bb
       -0.40919974 -0.17908485 -0.23389395 -0.0055187033
0001d0 13 1d fe 3c 92 15 72 3e 0b 8f 11 3e 4e 7d 92 be
       0.031019723 0.23641041 0.14214723 -0.28611225
0001e0 f8 3a e9 bc 41 8d e1 bd 23 b9 31 3d 6e 74 20 3c
       -0.028470501 -0.1101327 0.04338945 0.009793384
0001f0 92 e7 60 bd e6 49 dc bd 66 4a ce 3d 63 1a b4 3d
       -0.054908343 -0.107562825 0.10072784 0.08794095
000200 e9 9f 11 bd 76 9e ff bd a5 22 af 3d 0d 4d fb bd
       -0.035552893 -0.12481396 0.0855153 -0.12270556
000210 4d 9c bf bd 5c da 24 bd 2f 7f 5e be 18 64 c6 3e
       -0.09355984 -0.040247306 -0.21728204 0.3874824
000220 65 35 c0 bb 66 56 62 3d 9b b1 0e be b9 8d 97 be
       -0.00586574 0.055258177 -0.13934939 -0.29600313
000230 2a 23 92 3e 25 1c c6 bd 48 3e 49 3e d6 b3 bc be
       0.28542453 -0.09673337 0.19652665 -0.36855954
000240 51 15 02 3e cb ab 0a 3e cf 1e 2c 3e f0 f9 a0 3d
       0.12703444 0.13542096 0.16808628 0.07860172
000250 98 80 a0 3c 19 d4 f4 bc 42 3f 6a 3d 3c d9 0e be
       0.019592568 -0.029886292 0.057189234 -0.13950056
000260 e0 52 41 be d2 63 fc 3d a5 3b 81 3e 58 4f 2e 3e
       -0.1887927 0.12323727 0.25240818 0.17022455
000270 2d 26 7b 3d 3f 60 d1 3d 8e 75 68 3d eb f3 cb 3d
       0.061315704 0.102234356 0.056752734 0.09958633
000280 dc a8 5d bc e9 18 ab bd 3d 4d 9c bd 81 bf e2 3d
       -0.013529029 -0.083543606 -0.076319195 0.11071683
000290 4f 50 e0 3d df ad ac 3c a4 9c 6e 3d 14 d3 ae bd
       0.10952818 0.021079002 0.058254853 -0.08536354
0002a0 79 08 b0 bd cf 53 0c 3e 36 b5 87 3d 17 e9 84 bc
       -0.08595366 0.13703845 0.0662636 -0.016224427
0002b0 3d 08 d1 bd 6c 39 d3 ba f8 fd e5 bd 9d 8f a7 3d
       -0.102066495 -0.0016115136 -0.11230081 0.08181689
0002c0 3e 96 5d bd ff eb c0 3d 76 6b 00 be f9 9f 65 3c
       -0.05409836 0.09420013 -0.12540993 0.014015191
0002d0 a4 83 1a be fb 99 61 bd e7 cd 79 3d 23 73 d7 bd
       -0.1508928 -0.055078488 0.06098738 -0.105200075
0002e0 45 d9 ba bd e7 1e d6 bc 08 51 89 bc 1c 8a 9c 3d
       -0.09123472 -0.026137782 -0.016762272 0.0764353
0002f0 3e d3 c6 3d ef 8e ee 3d 3d a2 b9 bb 58 d7 2c bd
       0.0970826 0.11648356 -0.0056650923 -0.042197555
000300 17 aa 14 bd a3 ef 20 3c 4a 73 07 be 71 a6 bb 3c
       -0.036295023 0.009822759 -0.13227573 0.022906514
000310 09 78 d5 3d 44 fe 0d bd a6 2c fc bd 76 1c a9 bd
       0.104232855 -0.034666315 -0.123132035 -0.082573816
000320 76 e8 fa 3d 0f c2 de 3d 66 77 2a be e2 2f 21 bd
       0.1225137 0.108768575 -0.1664711 -0.039352305
000330 53 69 80 be e4 5b a7 3e 53 08 8c 3c 15 8a e1 bc
       -0.25080356 0.32687294 0.017093813 -0.027531663
000340 62 e3 35 3e 08 02 8b bd 55 3c 55 3e 4a a9 df bd
       0.17762521 -0.06787497 0.20823796 -0.10920961
000350 66 82 4a 3d ff 31 08 3e 26 f1 10 be ca 3d 0c bc
       0.049440764 0.13300322 -0.14154491 -0.008559654
000360 1b b4 49 bd 71 c9 b2 3c e8 0e e1 bb 10 6b fb 3d
       -0.049244028 0.02182457 -0.006868232 0.1227628
000370 1a b9 3b 3d 27 76 d6 bc bd 2d 92 3c ab 64 28 3e
       0.045830823 -0.026179386 0.017844075 0.16444652
000380 9d 19 d5 3d f5 c5 5f 3d fb 93 b4 bd 93 6c 70 bc
       0.10405276 0.054632146 -0.088172875 -0.014674324
000390 79 2e 1d bd a9 f7 01 bc 80 30 fd 3c f5 4f c5 bd
       -0.038374398 -0.007932582 0.030906916 -0.09634391
0003a0 dc cb a0 bd 7b 36 94 bc cd 42 41 3d 4c dc c2 bd
       -0.07851383 -0.018092385 0.047182847 -0.095146745
0003b0 fc ea 68 3c 0d 12 8f 3d e7 80 40 3c 59 1a c2 bd
       0.014216181 0.06985865 0.011749483 -0.09477682
0003c0 7a d8 24 3c 00 cf 16 3d 03 18 34 3d 5d 2b 00 3e
       0.010061378 0.036818504 0.04396821 0.12516542
0003d0 4b 09 a3 3d 20 8a 95 bb b5 6b 1a be 23 18 07 bd
       0.07960757 -0.004563585 -0.1508015 -0.032982003
0003e0 ac 78 25 bd af 5a a2 bd 69 26 8f 3d c5 2f 1f be
       -0.040398285 -0.07927453 0.06989748 -0.15545566
0003f0 75 97 be 3c 07 d2 d8 bd bd 3e d6 3d 88 9e 87 be
       0.02326558 -0.105869345 0.10461185 -0.26488137

conv_block_1.3.bias f4 [32]
000000 73 55 47 3c 3d ab cd bc 9a 30 2f 3d 98 9e 47 bd
       0.012166369 -0.025106067 0.04277096 -0.04873523
000010 55 68 50 3d aa 8f 35 bc 77 db 27 bb 44 0b 71 bc
       0.05088075 -0.011081615 -0.002561299 -0.014712159
000020 4c 37 18 bc 92 3c cc 3c 25 c1 2d 3d 03 4b 2e bd
       -0.009290528 0.024931226 0.042420525 -0.042552005
000030 66 9c 14 3c ad af 92 bc 3b b6 54 3d f9 09 53 bd
       0.009070491 -0.017906034 0.0519316 -0.051523183
000040 63 dd 83 3c ea ee 20 bc 3d 5d f9 bc 13 f3 0a bd
       0.016096776 -0.009822587 -0.030439967 -0.03392322
000050 85 9f 40 3d 75 54 4a 3d 33 7b f6 bb 0e a4 3a bd
       0.04702713 0.04939695 -0.0075220107 -0.04556661
000060 90 01 4d 3d 2b c8 1b bd 5a 41 d4 bc 71 6a 0b 3d
       0.05005032 -0.038032692 -0.025910068 0.034037057
000070 ae f7 24 3b 4c 37 0a 3d 32 a5 dc 3c c7 6d 11 3d
       0.0025172043 0.03374414 0.02693424 0.035505082

conv_block_1.4.weight f4 [32]
000000 e5 de 85 3f 75 df 8d 3f c7 69 5a 3f 4e 0e 81 3f
       1.0458647 1.1083819 0.85317653 1.008249
000010 b9 04 81 3f da a8 91 3f a5 76 99 3f 98 37 84 3f
       1.0079566 1.1379654 1.1989332 1.0329466
000020 4d 6c 84 3f af f5 99 3f 99 64 57 3f 40 0f 80 3f
       1.0345551 1.2028102 0.84137875 1.0004654
000030 dc c7 83 3f 46 57 82 3f d1 a1 7e 3f ee 47 73 3f
       1.0295367 1.0182884 0.9946566 0.9503163
000040 da 33 8e 3f 19 db 7d 3f ec 93 62 3f 7e 12 90 3f
       1.1109574 0.9916244 0.8850696 1.1255643
000050 74 8f 94 3f f1 36 8a 3f 10 89 99 3f 67 a0 9e 3f
       1.1606278 1.0798017 1.1994953 1.2392701
000060 90 39 6b 3f 84 f4 6b 3f 7f 36 54 3f ca f7 77 3f
       0.9188471 0.92169976 0.82895654 0.9686247
000070 82 01 82 3f 23 f3 90 3f 2f e9 81 3f 24 24 90 3f
       1.015671 1.13242 1.0149287 1.1261029

conv_block_1.4.bias f4 [32]
000000 f8 3a 5e be 7e 3f d0 be 34 27 9e be 61 84 0a be
       -0.21702182 -0.4067344 -0.30889285 -0.13527061
000010 53 dd 71 bd cc c3 94 be 3d 04 02 bf 52 28 9a be
       -0.05904896 -0.2905563 -0.5078772 -0.30108887
000020 f4 47 dd bd 14 c4 d3 be 7f b0 ba be 9c 65 a1 be
       -0.108047396 -0.41360533 -0.3646278 -0.31522834
000030 47 42 8e be 7d 09 27 be f8 c8 c1 bd cd de 4b bf
       -0.2778494 -0.16312213 -0.0946216 -0.7963684
000040 58 0e 08 bf 78 bb 79 be cb d6 b3 be 69 12 c6 be
       -0.53146887 -0.2438792 -0.35124812 -0.3868592
000050 c8 ec 15 bf c1 e0 9a be ec 36 03 bf 5b a2 fc be
       -0.58564425 -0.302496 -0.5125568 -0.49342617
000060 95 f8 23 be 81 b0 96 be 9b 24 cf be 4d 10 c6 be
       -0.16012795 -0.29431537 -0.40457615 -0.38684312
000070 8f 6b 08 bf b0 cc 02 bf 9e 1b 1f be 7c a2 b3 be
       -0.5328912 -0.5109358 -0.15537879 -0.35084903

conv_block_1.4.running_mean f4 [32]
000000 84 7b bd bf 1a 77 37 c0 b8 64 f7 3e be 79 3f c0
       -1.4803319 -2.8666444 0.4831903 -2.9918056
000010 9b f6 04 3f 2b c6 4a c0 8c 80 40 c0 32 ac 0b c0
       0.5193879 -3.1683452 -3.0078459 -2.182385
000020 51 c3 c8 bf 16 d4 4c c0 7b 5a 35 40 49 2a 03 c0
       -1.5684606 -3.2004447 2.8336475 -2.049456
000030 e4 53 b2 bf 42 e3 7f bf 34 b2 31 c0 a7 82 92 40
       -1.3931851 -0.9995614 -2.7765017 4.578449
000040 57 73 d5 bf 69 fe 0d c0 67 4b 75 3e 53 a1 4c c0
       -1.6675824 -2.218653 0.23954545 -3.1973464
000050 47 97 45 c0 72 23 20 c0 ec a2 4c c0 09 80 44 c0
       -3.0873582 -2.5021634 -3.197444 -3.0703146
000060 ea e9 05 c0 c0 90 6b be a0 0f 9c be 7b 24 c5 be
       -2.092402 -0.23004436 -0.3048067 -0.38504395
000070 8b 42 83 bf 95 92 c4 bf 2f 90 db bf 3a 40 64 c0
       -1.0254682 -1.5357233 -1.7153376 -3.56642

conv_block_1.4.running_var f4 [32]
000000 28 44 7b 40 9d 36 97 40 d8 24 87 40 a6 5b 88 40
       3.926035 4.7254167 4.2232475 4.2611876
000010 3d f4 39 41 a3 75 e5 40 a1 c2 85 40 0f ca b8 40
       11.6221285 7.17061 4.1800084 5.7746654
000020 22 02 9f 40 dd a9 e3 40 db 22 23 40 3f 6e ce 40
       4.9690104 7.1144853 2.5490024 6.450958
000030 4b cf a8 40 ad 8a a3 40 f1 db 27 41 a7 89 6d 40
       5.2753043 5.110678 10.491197 3.7115266
000040 5f a4 6d 40 25 ea cf 40 ff 57 4b 40 45 66 7a 40
       3.7131574 6.497332 3.1772459 3.912492
000050 57 ed 78 40 fb ff 71 40 34 15 db 40 54 83 c8 40
       3.889486 3.7812488 6.8463383 6.2660313
000060 9f 48 26 40 c2 ae b2 40 ea 86 50 40 61 87 fd 40
       2.5981824 5.5838327 3.2582345 7.9227757
000070 f0 89 41 40 0c 48 b5 40 47 b8 af 40 df 2b ff 40
       3.024044 5.665045 5.491245 7.9741054

conv_block_2.0.weight f4 [32, 32, 3, 3]
000000 7b bd cb bd 8b 99 ba 3d 39 da 03 be b4 80 5c 3e
       -0.0994825 0.09111317 -0.12876214 0.21533471
000010 18 86 17 3d b5 4f 8f bd ef cd ed 3a 3a 6b 93 3d
       0.036993116 -0.06997625 0.0018143038 0.07198186
000020 ea 22 e4 bd 82 da f1 bd 3f 09 e0 bc 46 e5 45 3c
       -0.11139472 -0.11809255 -0.027348159 0.012078589
000030 ed 72 94 be eb 90 b3 bd c7 ca 50 bc 61 bf ca bd
       -0.2899393 -0.08767875 -0.012743658 -0.09899784
000040 75 85 91 ba 28 ed d1 3d 74 f1 8c 3c af f9 1d 3e
       -0.0011102395 0.10250312 0.017204978 0.15427278
000050 8e 93 be 3d 13 d1 12 be 1b 45 f2 bd 46 44 4c 3c
       0.093054876 -0.14337568 -0.11829587 0.0124674495
000060 fc 92 59 be 39 a1 49 be 0a ab 36 bd 01 8b ff 3d
       -0.21247476 -0.19690408 -0.04459671 0.12477685
000070 2f ee bb 3d dd 86 65 3e 08 cf d8 3c 28 26 11 3d
       0.09176289 0.22414728 0.026465908 0.03543678
000080 aa 45 04 be 4b 61 12 3d ac 59 7b bd ff 6d 50 be
       -0.129172 0.035737317 -0.061364815 -0.2035446
000090 c9 54 8e be 62 9e 12 3d d1 a8 77 3d 68 b7 0f be
       -0.2779906 0.035795577 0.06046373 -0.14034808
0000a0 65 54 83 bc 25 56 c8 bc 02 57 7a be b4 5e 2b 3d
       -0.016031453 -0.02445514 -0.24447253 0.041838363
0000b0 7a 76 08 bd 60 18 cd bd 17 53 c6 3d 54 83 92 be
       -0.033316113 -0.10014415 0.09683817 -0.2861582
0000c0 06 d6 0d 3c 35 f6 0c 3e 1b a1 01 be ca ed 64 3e
       0.008656984 0.13765796 -0.12659113 0.22356334
0000d0 19 94 7d 3d 2b ba 27 3d a3 68 87 bc e3 36 1c bd
       0.061908815 0.040949028 -0.016529387 -0.03813828
0000e0 63 70 f6 3c 7b d6 25 bd 93 65 85 3c c0 e2 53 3e
       0.030082887 -0.040487748 0.016283786 0.20691967
0000f0 c7 03 8e 3d e1 ff ce 3b cf ab 09 3e 16 76 ef bd
       0.06934314 0.0063171242 0.13444446 -0.11692445
000100 6c e7 e5 3d 85 b7 c5 3c 29 ee d6 3a f1 56 02 3e
       0.11225781 0.02413536 0.0016397882 0.12728478
000110 a7 b1 a8 bc 44 3d ff 3d 3c 2c 1a 3d ca 1c e9 3c
       -0.020592524 0.12462857 0.03763984 0.02845611
000120 08 da 35 bd ce af c9 3d 59 fc 8b 3c ec 45 9e 3d
       -0.044397384 0.09847985 0.017088102 0.0772818
000130 66 17 d9 bc d4 59 8f bc 2c 67 a5 3e 9a 64 55 bb
       -0.026500415 -0.017498888 0.32305276 -0.0032561184
000140 f9 d1 0b be 2a 57 40 bd 21 b8 e7 ba b1 a6 89 be
       -0.13654317 -0.046958126 -0.0017678776 -0.26884988
000150 06 ae 56 bc 32 e1 83 bd 23 30 bf bd 7f 85 1d be
       -0.013103014 -0.06439437 -0.09335353 -0.15382956
000160 f6 85 1d be 2d 25 38 be 74 fe 72 3d b2 93 0a 3d
       -0.15383133 -0.17982931 0.059324697 0.03383226
000170 a6 e2 26 bb e0 0c 42 be 47 79 30 be 70 b9 3b 3e
       -0.0025464683 -0.18950224 -0.17233764 0.18332458
000180 27 07 46 be ef b2 fb bd 20 87 0e 3e 17 b0 bd bd
       -0.19338666 -0.12289988 0.13918734 -0.09262102
000190 24 68 14 be 76 df b7 3d 4a 50 44 3d 8a 29 48 be
       -0.14492851 0.08978169 0.047928132 -0.19547096
0001a0 2c 2f e3 bc f8 d1 2f be 73 95 1e be 88 a2 16 be
       -0.027732454 -0.1716994 -0.15486698 -0.14710438
0001b0 41 b0 82 3d da 95 54 3d 8d 0f 7c be bf 0f 66 be
       0.06381274 0.051900722 -0.24615307 -0.22466944
0001c0 53 a7 3a be 39 42 b1 bc 4c cc 45 be 8d 39 54 be
       -0.18227892 -0.021638023 -0.19316214 -0.20725079
0001d0 1f 0e a0 bd fb 68 82 3d 44 e4 0b 3e e9 e5 93 3d
       -0.078151934 0.0636768 0.13661295 0.07221586
0001e0 5a 00 9a bd 66 6a d2 3b b7 98 2f 3e 51 8b c1 be
       -0.07519598 0.006421375 0.171481 -0.37801602
0001f0 49 f1 8f be ba 9c d4 3c ee d7 27 bd af 98 80 3d
       -0.28113773 0.02595364 -0.04097741 0.06279122
000200 9b 5c a4 bd 20 09 8b be 90 74 0e 3e 16 d3 35 bd
       -0.080254756 -0.271554 0.13911653 -0.04439076
000210 8d 36 13 be 28 15 b4 bd 61 4b c1 bd ed 27 98 bd
       -0.14376278 -0.08793098 -0.094382055 -0.0742949
000220 db 35 f0 bd 5a 50 c7 bc 5c 46 a1 be e2 dc 5b be
       -0.11729022 -0.024330307 -0.31498992 -0.21470979
000230 7f d7 d6 3c 82 c8 ed bd a3 d8 7f bd 5b 08 2d 3d
       0.026225803 -0.116105095 -0.06246246 0.042244297
000240 b9 7f 3b 3d 79 e7 2a bb b6 1e c7 bc 0c ce aa bd
       0.045776103 -0.002607791 -0.024306636 -0.083400816
000250 7b 49 1e 3d 1d bd 1b 3e ff a5 43 3d b4 0f 25 3e
       0.038644295 0.1520886 0.047765728 0.16119272
000260 7f 18 06 bd 0c 1a 98 bd 7c 00 bf 3d 00 29 58 be
       -0.032738205 -0.07426843 0.09326264 -0.2110939
000270 8e 78 91 bd a1 bc a5 be 8b d6 3c bd f6 f2 dd bc
       -0.07103072 -0.32370475 -0.04610304 -0.027093392
000280 ac 7c 2b be f2 4f 3c 3c 8d 2b 57 3e ab d0 a4 3e
       -0.16746777 0.01149367 0.21012707 0.3219045
000290 35 45 bf 3d 47 96 8c 3e 99 a0 20 bc db b2 03 be
       0.09339372 0.27458403 -0.009803914 -0.12861197
0002a0 4e 4f 82 3d 91 b3 e5 bd c8 b5 b7 bd 66 57 58 3e
       0.063627824 -0.1121589 -0.08970219 0.2112709
0002b0 3e 72 7a 3c b8 14 c8 bd 3f 73 24 3d 78 40 8f bd
       0.0152860265 -0.09769577 0.04014897 -0.06994718
0002c0 60 a1 b2 bc aa 4d 11 be d8 b4 fc bb 61 f3 df bd
       -0.021805465 -0.14189783 -0.007711988 -0.10935093
0002d0 65 3a 26 bd 4f ac cb bd c0 ba 9e 3d d5 07 e8 3d
       -0.040583033 -0.09944975 0.077504635 0.11329619
0002e0 f4 0d 55 be 75 4c 4f be 2b 89 95 3d 73 79 47 be
       -0.20806104 -0.2024401 0.07301553 -0.19479923
0002f0 90 08 bc 3d b4 a5 70 3c 39 98 02 be 07 69 81 bd
       0.09181321 0.014687944 -0.12753381 -0.063188605
000300 59 7d 8b be 54 af a2 bd 0d a3 9d 3e d9 ef 54 3e
       -0.2724407 -0.079435974 0.3078846 0.2079462
000310 e8 37 99 3e ea c0 e9 3d 68 b8 4a 3d 2b f0 52 bd
       0.29925466 0.114137486 0.04949227 -0.051498573
000320 a3 27 62 bb cf 6c ca 3c ce ca c2 3d 8d 4a e2 3c
       -0.0034508489 0.024710087 0.09511338 0.02762344
000330 3a b6 f9 3d 68 79 90 3d da c3 50 3e ca 73 b9 bc
       0.1219296 0.070544064 0.20387211 -0.02263822
000340 d2 80 be 3e a5 a5 86 3c 11 f1 e8 3d ee 17 a0 3e
       0.37207657 0.016436407 0.11374105 0.31268257
000350 3a 17 6a 3e 71 32 2c 3e 35 8a 30 3d 27 a2 cf bd
       0.22860423 0.16816117 0.043100554 -0.1013835
000360 d7 23 be bc 31 14 08 3d 90 16 20 3d c3 dd f8 bd
       -0.02321045 0.03322238 0.039084017 -0.12151673
000370 32 74 08 3d 08 ed e3 3d e1 d5 49 bd 64 13 b0 3d
       0.033313937 0.111291945 -0.049276236 0.085974485
000380 b0 88 46 3c 2b 52 c8 3d 54 ca bb bc a6 6a 4b be
       0.01211755 0.09781297 -0.022923626 -0.19864902
000390 49 6c 15 bc 2b 4a 51 bd ed 16 fa 3d 3e ac 9d bd
       -0.0091200555 -0.051096123 0.12211404 -0.07698868
0003a0 0c bc 0b be 45 ed a7 bd 58 06 ed 3d fc 46 b7 3d
       -0.13645953 -0.081995524 0.115734756 0.08949086
0003b0 62 55 f3 bd de f2 0a be 95 da 06 bd fa 5a a1 3c
       -0.1188152 -0.13569209 -0.0329233 0.019696701
0003c0 1c 58 6a bc a0 de f2 3d f4 45 17 bd f6 ad 62 3d
       -0.0143032335 0.118588686 -0.036931947 0.055341683
0003d0 c4 f0 e9 bb fb ad 53 be b3 fd 88 3e 01 5e 8b 3e
       -0.007139297 -0.20671837 0.26756057 0.27220157
0003e0 8c 2f f2 bd bd 30 5e 3e e6 6c 8e 3e 1b fa 08 be
       -0.11825475 0.2169828 0.27817458 -0.13376658
0003f0 5e 90 06 3e ea 33 0e 3c 88 81 94 3e 31 ad 72 3e
       0.13141009 0.008679369 0.29005075 0.2369888

conv_block_2.0.bias f4 [32]
000000 2e b3 0e 3d 3d cd 54 bd 40 5b f6 bc b5 46 d6 bc
       0.034838848 -0.051953543 -0.030072808 -0.026156763
000010 a5 76 0f bd 82 b4 2d 3c 96 37 05 3d bf 32 a5 3c
       -0.035025258 0.010602118 0.032523714 0.0201658
000020 a7 46 d4 bb 43 1f 28 bd 92 52 c6 3b fd 1d 57 bc
       -0.006478149 -0.04104544 0.0060523236 -0.013129708
000030 a7 8c e3 bc 7e d5 a0 bc a0 01 18 bd 24 76 cc 3c
       -0.02777703 -0.019633051 -0.037110925 0.024958678
000040 99 7f dc bc 45 23 fa 3a fb 66 f3 bc 10 c0 b6 3c
       -0.026916312 0.0019083997 -0.02971219 0.02230838
000050 82 6e 52 3c f5 65 37 3d b2 7a 06 bd ca 74 ef bb
       0.01284373 0.04477497 -0.032831855 -0.0073076235
000060 2c 29 f1 3c ca f4 0d bd fd 0f d6 3c 24 62 f2 bc
       0.029438578 -0.034657277 0.02613067 -0.029587813
000070 fc ea 92 bc 44 ed 97 bb ea 1e a5 bc 12 2d 86 bb
       -0.017934315 -0.0046364386 -0.020156343 -0.0040947283

conv_block_2.1.weight f4 [32]
000000 68 da 80 3f fb 75 7c 3f da a2 7c 3f dd 2f 97 3f
       1.0066652 0.98617524 0.9868599 1.1811482
000010 9c b7 51 3f 33 b0 a2 3f 5c 2c 8f 3f df 61 61 3f
       0.8192079 1.2710022 1.1185412 0.88039964
000020 fc e7 8f 3f 28 4b 65 3f 48 a1 7f 3f 05 e0 74 3f
       1.1242671 0.89567804 0.9985547 0.95654327
000030 4f c5 6f 3f 21 49 73 3f 67 61 8b 3f 39 72 8f 3f
       0.93660444 0.9503346 1.08891 1.1206733
000040 30 75 46 3f ea 8b 75 3f 59 7c 56 3f 03 89 29 3f
       0.77522564 0.95916617 0.8378349 0.6622469
000050 3e 62 a9 3f 85 22 9f 3f dc 82 99 3f 37 a9 92 3f
       1.3233106 1.243241 1.199306 1.145789
000060 b3 25 81 3f c3 03 b6 3f ec 3f 87 3f e6 bf 88 3f
       1.008963 1.4219898 1.0566382 1.0683563
000070 f1 03 99 3f c0 c7 8f 3f 25 a8 5e 3f 34 72 62 3f
       1.1954328 1.1232834 0.8697532 0.8845551

conv_block_2.1.bias f4 [32]
000000 c2 37 96 be 8b f0 09 bf 10 50 9d be 86 95 d7 be
       -0.29339415 -0.53882664 -0.30725145 -0.42106265
000010 31 33 bc bd 7a b0 d1 be 40 6c 0c bf 95 56 ad be
       -0.091894515 -0.40954953 -0.54852676 -0.3385512
000020 55 db 08 bf 84 32 b4 be 5f e1 e7 be 45 62 27 bf
       -0.53459674 -0.3519479 -0.45289132 -0.6538432
000030 65 51 c4 be f3 19 d8 be 15 c7 31 bf e3 c6 cc be
       -0.3834335 -0.42207298 -0.694444 -0.3999549
000040 1f 6d 9c be 1e dd 06 bf b3 df 9a be c8 83 86 bd
       -0.30552003 -0.5268115 -0.30248794 -0.06568104
000050 08 5c ee be 88 dd 20 bf c6 e4 b7 be dd 9d 87 be
       -0.4655459 -0.6283803 -0.35916728 -0.26487628
000060 89 4b 05 bf a6 ed 40 bf 73 4e b0 be cb 61 a4 be
       -0.5206838 -0.7536262 -0.34434852 -0.3210586
000070 ab f4 18 bf fa a7 a2 be 3a 56 d8 be a9 7b b1 be
       -0.59748334 -0.3176878 -0.42253286 -0.34664658

conv_block_2.1.running_mean f4 [32]
000000 40 39 ba bf 8f dd a6 bf e7 4c 8f bf 28 b0 30 c0
       -1.4548721 -1.3036364 -1.1195344 -2.7607517
000010 72 1b 5d bf f8 42 b6 bf 10 18 94 bf f5 63 29 3f
       -0.86370003 -1.4239187 -1.1569843 0.6616815
000020 0e 51 e5 bf 21 58 b6 3d 48 8d fe bf 8a f3 b5 bd
       -1.7915361 0.08903528 -1.9886866 -0.08884342
000030 dd e2 2a bf 8a 80 18 3f b4 6f 81 bf 6c 64 a0 bf
       -0.66752416 0.59571135 -1.0112214 -1.2530646
000040 c4 58 e9 3e b8 99 a4 3d e9 97 ed 3f ed e5 52 3f
       0.45575535 0.08037132 1.8561984 0.8238209
000050 0a c5 7e c0 5f 39 b4 bf e1 b0 07 c0 a7 10 3c c0
       -3.9807763 -1.4080008 -2.1201708 -2.9385164
000060 b8 a7 b4 bf 6c 69 30 c0 c2 31 50 bf c7 f4 83 bf
       -1.4113684 -2.7564344 -0.81325924 -1.0309075
000070 0a 4e d2 bf 9d e2 98 bf 0c 97 d5 be 83 fc c6 3f
       -1.6430066 -1.1944157 -0.41716802 1.554581

conv_block_2.1.running_var f4 [32]
000000 f1 41 88 40 ba 06 9a 40 4d 59 de 40 25 15 c6 40
       4.2580495 4.813321 6.948401 6.190081
000010 0d ff 85 40 2a cf f3 40 39 f9 b2 40 44 81 8a 40
       4.187384 7.6190386 5.5929227 4.3282795
000020 18 b2 99 40 f2 c2 9f 40 79 35 b0 40 ed 33 89 40
       4.80299 4.992547 5.5065274 4.2875886
000030 61 70 95 40 8a 91 82 40 cf 5c 95 40 fd 79 98 40
       4.669968 4.080266 4.667579 4.764891
000040 49 07 7f 40 f6 46 92 40 b5 37 76 40 97 5d 97 40
       3.9848197 4.571162 3.84715 4.7301745
000050 a0 12 f0 40 de 54 a1 40 f9 df 9c 40 42 77 be 40
       7.5022736 5.04161 4.9023404 5.952058
000060 3e a3 b0 40 6a 00 f1 40 20 da 96 40 41 8f d5 40
       5.519927 7.5313005 4.7141266 6.673737
000070 9d 8b b7 40 d6 a1 ad 40 00 87 71 40 a2 59 8c 40
       5.7357926 5.4260054 3.7738647 4.3859415

conv_block_2.4.weight f4 [32, 32, 3, 3]
000000 69 b1 e1 3d 4e 80 12 bb 62 a9 21 3c e6 94 83 3d
       0.110201664 -0.0022354308 0.009867044 0.064248845
000010 bf 01 2f be 62 d7 12 3e 5b 7c d3 3d 50 d3 a6 bd
       -0.1709051 0.14339975 0.10326453 -0.081457734
000020 34 bc 56 bc ce ab a5 3d 92 e1 05 be b8 e6 4b 3e
       -0.013106395 0.0808941 -0.1307433 0.19912231
000030 3b 7f 74 3d 35 6d c3 3c 55 9d 70 bd ed 20 04 be
       0.05969165 0.023855785 -0.058743794 -0.12903185
000040 c5 3e 8a bd dc 28 c1 bd a9 08 ec 3d 49 ee b5 bd
       -0.067502536 -0.094316214 0.11525089 -0.0888334
000050 18 8a f8 bd d8 f5 5c be 77 7d 02 be 32 08 8c 3e
       -0.12135714 -0.21578157 -0.12743174 0.27350003
000060 2e 78 e2 3d da 64 88 be 4f 32 28 be 4f e8 80 3d
       0.11058079 -0.26639444 -0.16425441 0.06294309
000070 e1 73 7e be f5 fa 29 be 5a fa 63 3e a2 d3 f6 bd
       -0.24848892 -0.16599639 0.2226347 -0.120520845
000080 45 1c ba 3d 88 fc 61 3e 4c 3d 75 3d 05 ef bb bd
       0.09087423 0.2206899 0.05987291 -0.09176449
000090 cb b5 a8 3d 60 11 36 be ad bc 4e bc 13 e2 54 be
       0.08237799 -0.17780066 -0.012618226 -0.20789365
0000a0 d0 94 ec bd 77 a8 f5 bc 9d 55 25 be 42 82 63 be
       -0.11551821 -0.029987557 -0.1614594 -0.22217658
0000b0 e0 60 6d be d6 01 57 be c6 7b a5 be f7 aa 1c bd
       -0.23181486 -0.20996794 -0.32320994 -0.038248982
0000c0 f7 20 08 3e a6 ac da bd 94 e7 44 be 6e 9d 87 bd
       0.13293825 -0.10677461 -0.19228965 -0.06621824
0000d0 b1 18 b6 bd ae 2f 83 bd ac 22 3a 3e 08 f8 8f bd
       -0.08891428 -0.064055786 0.18177289 -0.0702973
0000e0 c6 b9 20 bd 9f 97 79 bd 6d b2 11 bc 09 e8 e3 be
       -0.039239667 -0.060935613 -0.008892638 -0.44512966
0000f0 09 27 e4 bd 17 69 06 3e d3 e2 fd bd 4a 19 0e 3e
       -0.11140258 0.13126026 -0.12396779 0.13876835
000100 a7 31 05 3e 57 fc 5c 3d 49 8b 84 be a0 9f 94 bd
       0.13007222 0.053951588 -0.25887516 -0.072570086
000110 d7 2d af 3d 69 b3 8f bd ed 1f 59 bc 21 a3 32 bd
       0.08553665 -0.07016642 -0.013252241 -0.043612603
000120 f2 a3 31 bd 9a 73 0b 3e 6a 37 15 bd ba 2b 78 3e
       -0.04336924 0.13618317 -0.0364298 0.2423543
000130 7d ea 19 3e ec 4a fb 3d 31 03 bb 3d 3d 8a 81 3c
       0.15030856 0.122701496 0.09131468 0.015812987
000140 5e cd 32 be 40 1c 4c 3e 01 2e ab bd 7d ac a2 3c
       -0.17461154 0.19932652 -0.08358384 0.01985764
000150 c4 12 a1 bc fc 7a 2e be 14 66 6c bd 27 0a f2 3a
       -0.019662268 -0.17039102 -0.057714537 0.001846616
000160 5a 58 25 be 10 4e 3b 3e 60 2d 2a 3e b6 1c 6b bd
       -0.16146985 0.18291497 0.16618872 -0.057400428
000170 14 5d 20 bc eb 41 f9 bd e3 56 76 bd 31 6b fb b8
       -0.009787817 -0.12170776 -0.060141455 -0.000119885786
000180 15 cf 71 3d 44 57 1a 3d b9 4f 8b bd ee d5 37 3e
       0.05903538 0.03768088 -0.06802315 0.17952701
000190 66 38 09 be 5d 02 3d 3c f0 b7 81 bd ee b8 89 3e
       -0.1340042 0.011536208 -0.063339114 0.26898903
0001a0 9f 85 fc bc 92 48 34 bb cc fe 82 bd 04 ce 82 3d
       -0.030825434 -0.0027509076 -0.06396255 0.063869506
0001b0 e2 59 ab 3d 8d e7 49 3c ef 6e 54 3e a3 9a 74 bb
       0.08366753 0.012323272 0.20745443 -0.0037323616
0001c0 b4 44 42 3e ad 55 06 3e 81 f9 27 be aa 9a f4 bc
       0.1897152 0.1311862 -0.16403772 -0.029858906
0001d0 00 82 f9 bc 2f 53 66 be 31 95 42 be e4 3d cd bc
       -0.030457497 -0.2249267 -0.19002225 -0.025053926
0001e0 6a 1f 81 be bc 6b 0e bc 94 ed 11 be 4b 53 32 3d
       -0.2521928 -0.008692678 -0.14250785 0.043536466
0001f0 cb 31 d2 3d ef 1a a7 bd fc 38 09 3e a9 25 63 3e
       0.102634035 -0.08159434 0.13400644 0.22182335
000200 95 96 e2 3c b7 3b c1 bd 39 4e 0e be f7 10 26 3d
       0.027659694 -0.09435218 -0.13897027 0.040543523
000210 7a f5 8e be 7d ac 49 bd 13 d7 5d be 91 41 6e 3e
       -0.2792166 -0.049236763 -0.21664076 0.23267199
000220 4c 3f ef 3d b5 2c 37 3d 9f 6f b8 bd 4e 0c a4 bd
       0.11681995 0.04472037 -0.09005665 -0.080101594
000230 5e d1 05 be 49 66 b9 bc 76 bd 87 bd e2 3d a0 3d
       -0.13068148 -0.022631781 -0.06627934 0.07824303
000240 87 6a c4 3c a5 19 13 be f7 ee 85 3b e0 c8 cc 3d
       0.023976577 -0.14365251 0.0040873247 0.09999251
000250 75 9b 0b 3d 68 f4 05 be ba 7d 7e be 86 94 75 bd
       0.034083802 -0.13081515 -0.24852648 -0.059956096
000260 c9 0c 19 3c d4 43 62 3d 52 1a 09 3d cf 9c 26 3d
       0.009341427 0.055240467 0.033472367 0.040676888
000270 1f 5e 83 be 93 c2 b1 3e ca 96 e1 3e 33 fd 19 3e
       -0.25657746 0.3471876 0.44060355 0.15037994
000280 3d 5f fb bd b9 1f 81 3e ac df c0 bd 21 af b9 3e
       -0.12274025 0.25219515 -0.09417662 0.36266425
000290 9b 85 9a bd 3a f6 d5 be f4 de 5e 3e 79 c0 42 be
       -0.075450145 -0.41789418 0.21764737 -0.19018735
0002a0 c0 e9 47 bd b9 4b e2 bd db 69 8b be d0 03 0d be
       -0.048806906 -0.11049599 -0.272292 -0.13770986
0002b0 50 61 87 be ea ee 05 3b 01 f9 0d be 34 32 92 3e
       -0.2644143 0.0020436593 -0.13864519 0.28553927
0002c0 13 fa 8f bd fa 51 a9 bd 3a c4 54 3e 81 83 d6 bd
       -0.0703012 -0.08267589 0.2077798 -0.10474301
0002d0 1f be 00 be 00 6e d9 bd 19 08 af be 17 12 2c 3e
       -0.12572525 -0.10616684 -0.34185866 0.16803776
0002e0 a8 66 30 be 91 b6 8a 3e 8f d5 83 bc f3 a0 f8 3d
       -0.1722666 0.27092412 -0.016093044 0.121400736
0002f0 35 61 d2 bd ae 2d 98 3e d0 44 2a bd 7b 31 58 be
       -0.10272447 0.2972235 -0.04156953 -0.21112625
000300 4d c6 cd bd 52 23 e8 bd 5b 6f 61 bc 49 7a e1 3d
       -0.100475885 -0.11334862 -0.013759459 0.11009652
000310 fa 0b 76 3e c1 c4 ec 3d c4 08 1a bd cc 02 c0 bc
       0.24028006 0.11560965 -0.037606016 -0.023438834
000320 b0 9e 4d bd 03 5e 76 bd 4f b4 aa 3d b9 0a 96 3d
       -0.050200164 -0.06014825 0.083351724 0.07326264
000330 81 e0 0b 3d 3a 89 d7 3d a0 ea 16 3e ab db 08 be
       0.03414965 0.10524221 0.1473794 -0.13365047
000340 d9 8b 82 be 27 fe 40 bd 27 3a 9f 3e 6c 75 17 be
       -0.2549732 -0.04711738 0.31099054 -0.14790887
000350 2b 59 73 be fa f4 bf 3e f1 b2 4a 3e 9d 08 d5 3d
       -0.23764484 0.3749159 0.19794823 0.104020335
000360 26 dd b3 3e 52 0b 67 3e 5a ab 80 3e 0b f9 ad 3d
       0.3512966 0.22562912 0.2513073 0.08494767
000370 de 65 14 be 70 aa 57 3c 43 47 ec bd 8a ad f4 bd
       -0.14491984 0.013163194 -0.115370296 -0.119471624
000380 a1 a9 b3 3d 0f e2 8e be c7 93 7f be 26 5e b7 bc
       0.087725885 -0.27906844 -0.24958716 -0.02238376
000390 5f e3 59 3e c7 33 81 3e 58 8b c2 3e f3 44 f3 bd
       0.21278141 0.25234815 0.37996936 -0.118783854
0003a0 25 94 b5 bc 2c 72 6e 3e 09 66 f9 3d aa 47 ff 3d
       -0.022165367 0.2328574 0.12177665 0.12464841
0003b0 c7 8d a0 3d 06 c3 cb bd c6 c6 ef 3d 63 0a c5 3e
       0.07839542 -0.09949307 0.11707835 0.38484487
0003c0 e7 26 0c 3d 89 58 1f be 23 b0 8a bd bb a3 41 be
       0.034216788 -0.15561117 -0.06771877 -0.18910114
0003d0 06 b8 8a be 50 81 d1 be 05 c2 02 b9 a8 3c 99 be
       -0.27093524 -0.4091897 -0.00012470044 -0.2992909
0003e0 07 b5 39 3d 2d b9 1d 3e ef 44 0e 3c 6d c1 12 be
       0.045338657 0.1540267 0.008683427 -0.14331599
0003f0 1b 28 89 3e 9a c1 5e bc 9f ce 22 3d 21 35 56 bd
       0.2678841 -0.013595963 0.03974783 -0.05229676

conv_block_2.4.bias f4 [32]
000000 24 35 9a bc 2a fa a9 bc e3 99 6e 3d b6 3a 3f ba
       -0.018824168 -0.02074917 0.058252227 -0.00072948204
000010 44 e5 55 bd a7 d7 fe 3b f4 52 69 3c 92 b3 14 3d
       -0.052220598 0.0077771726 0.014240969 0.036304064
000020 34 ca 5a 3d ec 45 60 bc 6b 28 ed bc 80 dd 2f bd
       0.053415492 -0.013688546 -0.028949937 -0.04293585
000030 8b 39 c1 bc b8 b9 6a 3d 34 bf c3 bc f3 b8 34 bd
       -0.023587009 0.05730602 -0.023894884 -0.044121694
000040 fc 58 02 bd 45 4b 81 bb 1a c5 03 bb bb 06 30 3d
       -0.031823143 -0.0039457404 -0.0020106495 0.04297517
000050 dc a8 e6 3c b8 66 4a bc 59 37 03 3b c2 c9 55 bd
       0.02815669 -0.012353592 0.0020022003 -0.052194364
000060 0f 18 c2 3c d8 2d 3b 3d dc 74 ad bc 45 03 80 bc
       0.023693113 0.045698017 -0.021173887 -0.015626559
000070 33 2e b7 3c 74 5a f4 3c 29 89 07 bc cb f7 48 bd
       0.022360897 0.029828288 -0.008272448 -0.04906444

conv_block_2.5.weight f4 [32]
000000 76 f0 81 3f c2 99 66 3f 70 7d 71 3f 98 77 47 3f
       1.0151508 0.90078366 0.9433203 0.7791686
000010 bf 3f 83 3f 46 ca 56 3f b7 86 75 3f 54 0a 95 3f
       1.0253829 0.83902395 0.95908684 1.1643777
000020 cf a5 7d 3f 58 31 7d 3f fb 66 8c 3f 7d 71 55 3f
       0.9908113 0.9890342 1.0968927 0.83376294
000030 7f 66 76 3f 67 04 71 3f 20 bc 6f 3f 9a 9c 68 3f
       0.96250147 0.9414734 0.9364643 0.90863955
000040 4f f4 5f 3f 69 95 6a 3f 07 e1 80 3f f4 ad 72 3f
       0.8748216 0.9163423 1.0068673 0.9479668
000050 37 52 6e 3f 84 4a 6d 3f 1d c7 85 3f 46 72 8f 3f
       0.930942 0.92691827 1.045139 1.1206748
000060 bb 58 88 3f 99 e6 75 3f 04 5e 55 3f d9 56 6b 3f
       1.0652078 0.9605499 0.8334658 0.91929394
000070 b0 75 70 3f 02 6f 83 3f b5 1f 63 3f 89 57 61 3f
       0.93929577 1.0268252 0.88720256 0.88024193

conv_block_2.5.bias f4 [32]
000000 b5 26 7e bf 6c 68 52 bf c3 76 6c bf 06 c6 47 bf
       -0.9927781 -0.82190585 -0.92368716 -0.78036535
000010 c1 ef 58 bf ba fb 30 bf 5d 12 97 bf 15 70 aa bf
       -0.84740835 -0.69134104 -1.1802479 -1.3315455
000020 b0 4f 36 bf 9e 68 7f bf 7d ca 6f bf 94 5c 41 bf
       -0.71215343 -0.9976901 -0.9366835 -0.7553189
000030 31 fd 46 bf 2e 80 81 bf b3 b4 42 bf 62 f0 46 bf
       -0.7773009 -1.0117242 -0.76056975 -0.77710545
000040 89 ce 12 bf a8 5d 82 bf b3 cf 61 bf 94 b2 34 bf
       -0.573464 -1.0184832 -0.8820755 -0.7058499
000050 25 ae 74 bf 01 20 2e bf 3b 9d 80 bf 7c 7e 58 bf
       -0.95578223 -0.68017584 -1.0047983 -0.84568
000060 39 15 6e bf ea c5 64 bf d8 b1 44 bf 2b df 3e bf
       -0.93001133 -0.8936449 -0.7683387 -0.7455928
000070 06 c9 21 bf bd 49 4c bf eb bd 13 bf b8 be 35 bf
       -0.6319736 -0.79800016 -0.57711667 -0.7099414

conv_block_2.5.running_mean f4 [32]
000000 45 93 bd bf b8 02 1f bf 2c 67 c8 3f 74 03 ae bf
       -1.4810568 -0.62113523 1.5656486 -1.3594804
000010 55 1a d2 bf a7 53 7a be f2 26 f5 3d 15 39 c6 bf
       -1.6414286 -0.24445973 0.11970319 -1.548617
000020 f1 89 ca bf 2e da d9 bf 98 c1 90 c0 7a 44 2d 3f
       -1.5823346 -1.7019708 -4.523632 0.6768261
000030 e8 f1 03 c0 f8 3b 85 bf cd e2 ff bf f2 78 5c c0
       -2.0616398 -1.0408926 -1.9991089 -3.444882
000040 9f fb ea bf e3 71 5c 3e 6e 9e a4 bf 17 15 fb bf
       -1.8358039 0.2152782 -1.2860849 -1.9615811
000050 c2 dd cd bf 02 86 ce bf ed 11 52 c0 bd e2 26 c0
       -1.60833 -1.6134646 -3.282344 -2.607589
000060 22 2b 34 c0 83 ca d5 3e 20 79 4b 3f 93 47 ef bf
       -2.8151326 0.41756067 0.794817 -1.8693718
000070 5e 5b d3 bf 33 08 0b c0 7b 49 ac bf 6e bb 49 bf
       -1.6512258 -2.1723754 -1.3459924 -0.7880162

conv_block_2.5.running_var f4 [32]
000000 c0 f0 4c 40 bc a1 2f 40 44 c6 39 40 6a 3e 0e 40
       3.2021942 2.7442465 2.9027262 2.2225595
000010 6f f4 4a 40 76 4b 33 40 dc fc 23 40 53 4c 56 40
       3.171169 2.8014808 2.5623083 3.3484085
000020 f2 5d 6b 40 b8 18 34 40 88 37 74 40 4a cc 0c 40
       3.677609 2.8140087 3.8158894 2.1999688
000030 7c bb 45 40 b4 7b 48 40 40 ba 2f 40 c0 f4 3f 40
       3.0895681 3.1325502 2.7457428 2.9993134
000040 ea 3f 3c 40 1c 56 46 40 68 b5 46 40 4f 31 4c 40
       2.941401 3.0990057 3.1048222 3.1905096
000050 33 8e 1d 40 d5 65 2e 40 0d 11 51 40 01 4f 7d 40
       2.4618042 2.7249653 3.2666657 3.957947
000060 80 a3 76 40 18 c7 4a 40 69 b6 36 40 20 1d 38 40
       3.8537292 3.1684017 2.8548834 2.8767776
000070 dd a5 4f 40 f8 54 8b 40 58 cf 86 40 17 bb 49 40
       3.2444985 4.354122 4.2128105 3.152044
