ROBUST_CIFAR_CNN.pth (torch, 194810 bytes, 28 tensors)

conv_block_1.0.weight f4 [32, 3, 3, 3]
-0.058005203 0.0025396834 0.14495137 0.24299572 -0.30584443 -0.44052222 -0.22475176 -0.33336884
-0.48847678 0.32966235 0.4137525 0.77314866 0.41980216 0.3175355 -0.11432304 0.21697524
0.1307613 -0.11361685 -0.25333363 -0.23352192 0.20257579 -0.112429515 -0.43024388 -0.3630014
0.09641452 0.10957163 -0.28491274 0.005953302 -0.11493912 -0.04568419 0.0920091 0.46222305
-0.5327735 0.18040197 0.23069687 -0.10791764 0.39420903 -0.030830428 -0.22381632 -0.0046627973
0.3544245 -0.51735955 0.13570926 -0.00922867 -0.25558326 -0.30363446 -0.0942218 0.46645865
-0.31650078 0.3957101 0.083434425 -0.60797167 -0.024236606 0.34906068 0.2230894 0.25058016
-0.3223393 0.5346161 -0.20584299 -0.4333196 0.4482302 0.4493742 0.060471386 -0.3576185
-0.05203307 -0.089506455 -0.6641084 -0.8741226 -0.20199795 -0.5843273 -0.2878995 0.015130487
-0.030218672 0.53756183 0.07944991 0.012954031 -0.089186065 0.22123618 -0.1276581 0.49332553
0.48120624 -0.14697817 -0.077600166 0.4521855 -0.36330953 -0.23382205 0.61226106 0.5899914
-0.08646058 -0.20675549 -0.1385922 -0.26225632 0.44016534 -0.34069937 -0.58553356 0.6009401
0.62326455 -0.09500582 -0.39729393 -0.04120754 -0.12394387 0.13602573 -0.26657864 -0.3505458
0.602984 0.5552251 -0.015541316 -0.23267245 -0.5336311 -0.16529539 0.0048697824 0.018972779
-0.25834882 0.22620846 0.44219396 0.15861428 0.06701477 -0.17309111 -0.39390895 0.26365343
-0.10644127 -0.33881068 -0.045019288 0.19912946 0.08071632 0.23878357 -0.4805578 -0.06545245
0.48007336 0.078491345 -0.13463844 0.3510917 0.03303548 0.12953433 0.18201387 -0.03164038
-0.022712823 0.83127224 -0.19550137 -0.6513367 0.88770485 -0.5841398 -0.41826916 0.119072184
-0.021462403 -0.71542567 -0.02186516 0.38161105 -0.6729774 0.4081908 0.13723505 0.1742633
0.19201496 0.13684943 -0.6261396 -0.35695335 0.45403066 -0.4350148 0.07692804 0.5965632
0.026699053 -0.056672428 -0.22760856 0.12423688 0.119127765 -0.38678 -0.14952584 0.21942633
-0.6174406 -0.05584512 0.31162748 -0.31676102 0.04107503 0.007694042 -0.4328384 -0.037125003
0.32942885 -0.19233431 0.07232236 0.55348325 0.11899122 -0.019322034 -0.3166496 -0.1496291
-0.17940395 -0.018064322 0.09396806 0.38742182 0.23299517 0.2654889 0.49744472 0.40703684
-0.0051414515 0.2756685 0.13935855 -0.32124072 -0.4978836 -0.3073767 0.49790525 0.20054829
0.120003365 -0.03396715 0.09567342 -0.3090037 0.07373346 -0.4140834 -0.03212232 0.27266383
0.24302006 0.06788144 -0.020668473 -0.17132959 -0.49059832 0.040223345 -0.32723135 -0.042625267
0.084860876 0.2203604 0.41285813 0.36387014 0.45568168 0.1633404 -0.055677198 0.21849667
-0.02006903 -0.07341672 -0.17512874 -0.20381479 -0.09106242 -0.062590264 -0.47746122 -0.43272954
-0.09900732 -0.35889044 0.08435831 0.19863683 0.14828204 -0.12744051 -0.14179796 -0.36785465
-0.41290492 -0.1996417 -0.40153494 0.0190939 0.29122418 0.13214953 -0.10552263 0.14505295
-0.059815083 -0.62838936 -0.34468943 -0.13542369 0.15390737 0.0437438 0.0296666 0.31301528
00000000: dd96 6dbd d170 263b 226e 143e dfd3 783e
00000010: a497 9cbe 218c e1be 5325 66be 52af aabe
00000020: a119 fabe 81c9 a83e 5ed7 d33e 12ed 453f
00000030: 4ff0 d63e 0394 a23e 3322 eabd c22e 5e3e
00000040: 4ae6 053e f3af e8bd f2b4 81be 5f20 6fbe
00000050: 0770 4f3e 7241 e6bd ed48 dcbe 52db b9be
00000060: fa74 c53d 1767 e03d 15e0 91be eb13 c33b
00000070: 3465 ebbd 581f 3bbd 446f bc3d 80a8 ec3e
00000080: d863 08bf 4bbb 383e cd3b 6c3e ec03 ddbd
00000090: c4d5 c93e 1890 fcbc 1b30 65be 61ca 98bb
000000a0: 2177 b53e ad71 04bf 5ef7 0a3e d933 17bc
000000b0: cfdb 82be fa75 9bbe 5cf7 c0bd abd3 ee3e
000000c0: 640c a2be 849a ca3e abdf aa3d 08a4 1bbf
000000d0: d98b c6bc 15b8 b23e 8c71 643e 0b4c 803e
000000e0: a809 a5be 9adc 083f 81c8 52be 11dc ddbe
000000f0: 6e7e e53e 6014 e63e d8b0 773d c619 b7be
00000100: a120 55bd 294f b7bd 0203 2abf 80c6 5fbf
00000110: 8dd8 4ebe 7996 15bf 9067 93be dde5 773c
00000120: 268d f7bc a79d 093f a2b6 a23d 253d 543c
00000130: 2fa7 b6bd bd8b 623e ceb8 02be 2a95 fc3e
00000140: aa60 f63e 7281 16be d6ec 9ebd dc84 e73e
00000150: b503 babe 0c6f 6fbe 24bd 1c3f ad09 173f
00000160: 3f12 b1bd b6b7 53be 1deb 0dbe 7646 86be
00000170: 5a5d e13e 2670 aebe 87e5 15bf 36d7 193f
00000180: 448e 1f3f 6992 c2bd 1c6a cbbe 3dc9 28bd
00000190: 49d6 fdbd 544a 0b3e ff7c 88be bd7a b3be
000001a0: 295d 1a3f 3b23 0e3f 01a1 7ebc b041 6ebe
000001b0: 0c9c 08bf 3243 29be b292 9f3b cd6c 9b3c
000001c0: 4c46 84be 31a3 673e 3f67 e23e c86b 223e
000001d0: 0a3f 893d cc3e 31be 6fae c9be 95fd 863e
000001e0: e1fd d9bd 9878 adbe 2566 38bd 98e8 4b3e
000001f0: 994e a53d ae83 743e ac0b f6be ef0b 86bd
00000200: 2dcc f53e 12c0 a03d a9de 09be 4bc2 b33e
00000210: 3650 073d a6a4 043e d861 3a3e 5899 01bd
00000220: 3e10 babc 42ce 543f 8331 48be 01be 26bf
00000230: a040 633f 308a 15bf 6027 d6be 1edc f33d
00000240: ecd1 afbc 2326 37bf 901e b3bc 8662 c33e
00000250: 3f48 2cbf 62fe d03e 5887 0c3e 1472 323e
00000260: 929f 443e 4222 0c3e af4a 20bf 97c2 b6be
00000270: b576 e83e 43ba debe 738c 9d3d 5eb8 183f
00000280: f9b7 da3c 5921 68bd 3812 69be e86f fe3d
00000290: 42f9 f33d 0708 c6be 4d1d 19be 4cb1 603e
000002a0: 9610 1ebf dabd 64bd a38d 9f3e 802e a2be
000002b0: 4a3e 283d 4d1e fc3b ff9c ddbe 6310 18bd
000002c0: e6aa a83e 49f3 44be bf1d 943d 14b1 0d3f
000002d0: abb1 f33d 3e49 9ebc e51f a2be 5f38 19be
000002e0: abb5 37be a1fb 93bc 5472 c03d 275c c63e
000002f0: 4996 6e3e 29ee 873e 13b1 fe3e 2267 d03e
00000300: 9f79 a8bb 6c24 8d3e 02b4 0e3e aa79 a4be
00000310: 99ea febe 7b60 9dbe 70ed fe3e 885c 4d3e
00000320: 53c4 f53d 2321 0bbd 6df0 c33d bc35 9ebe
00000330: 9101 973d bd02 d4be b292 03bd 989a 8b3e
00000340: 40da 783e 6d05 8b3d ee50 a9bc 0671 2fbe
00000350: b42f fbbe 3cc1 243d de8a a7be d597 2ebd
00000360: 8acb ad3d 28a6 613e 2462 d33e 304d ba3e
00000370: 1c4f e93e b542 273e c60d 64bd 97bd 5f3e
00000380: ce67 a4bc 815b 96bd f354 33be d3b4 50be
00000390: ef7e babd 532f 80bd cc75 f4be ba8e ddbe
000003a0: 5ac4 cabd 7dc0 b7be 0dc4 ac3d 7467 4b3e
000003b0: 3fd7 173e c47f 02be 7c33 11be 7257 bcbe
000003c0: 4668 d3be e06e 4cbe fd95 cdbe d06a 9c3c
000003d0: 561b 953e 3552 073e 401c d8bd c388 143e
000003e0: a900 75bd 20de 20bf 227b b0be 82ac 0abe
000003f0: e599 1d3e b32c 333d 5f07 f33c 8a43 a03e

conv_block_1.0.bias f4 [32]
-0.022060115 0.2127401 -0.119087316 -0.09625263 0.014353661 -0.24246065 0.055530082 0.14680536
-0.09050343 -0.10021156 -0.08476531 -0.05852914 -0.18742307 0.17278264 0.20372695 0.010687046
0.22867477 0.14194193 -0.134293 0.12576868 -0.116247274 0.012650173 0.04078948 0.012637458
-0.07745956 0.150143 -0.049653582 0.1685469 0.18096076 -0.036637858 -0.121951506 0.16887875
00000000: 6ab7 b4bc 8ad8 593e 0de4 f3bd 1920 c5bd
00000010: 9e2b 6b3c 9b47 78be 8373 633d 2554 163e
00000020: dd59 b9bd b83b cdbd 6f99 adbd 40bc 6fbd
00000030: d5eb 3fbe efed 303e cc9d 503e b818 2f3c
00000040: b829 6a3e 3a59 113e 1b84 09be 81c9 003e
00000050: 0d13 eebd ac42 4f3c df12 273d 570d 4f3c
00000060: 1ea3 9ebd 16bf 193e 8e61 4bbd 8f97 2c3e
00000070: c74d 393e 9411 16bd b6c1 f9bd 8dee 2c3e

conv_block_1.1.weight f4 [32]
0.97270066 0.9394691 0.8387562 0.87505114 0.9772502 0.79268575 1.109746 0.8695065
1.1563762 0.8971829 0.75599825 0.9336221 1.0231447 0.9336484 1.0334789 1.2227389
1.1962768 1.0565189 1.0930185 0.86350197 0.6741214 0.886309 1.0774328 0.9022911
0.76284415 0.81320953 0.8002152 1.0643152 0.9541863 0.8773836 0.6572479 1.0326328
00000000: e902 793f 0c81 703f bab8 563f 5a03 603f
00000010: 122d 7a3f 74ed 4a3f 280c 8e3f fa97 5e3f
00000020: 2304 943f c7ad 653f 1a89 413f dc01 6f3f
00000030: 68f6 823f 9503 6f3f 0949 843f b582 9c3f
00000040: 991f 993f 033c 873f 08e8 8b3f 770e 5d3f
00000050: 3893 2c3f 26e5 623f 51e9 893f 8dfc 663f
00000060: c149 433f 802e 503f e7da 4c3f 7b3b 883f
00000070: 8e45 743f 369c 603f 6641 283f 502d 843f

conv_block_1.1.bias f4 [32]
-0.15978543 -0.19872972 -0.12220163 0.8604073 -0.121170774 0.9509582 -0.2539754 0.6142168
-0.4856212 -0.32163858 0.024937216 -0.24357176 0.81723416 0.76348734 -0.10469559 0.75039405
-0.6212903 -0.23151514 0.08944255 0.46948445 -0.11250125 0.103494525 1.1334435 0.25343645
-0.061188925 -0.34782347 0.3640448 0.7769053 0.011585886 -0.013351679 0.13012893 -0.025571046
00000000: cb9e 23be ce7f 4bbe d944 fabd a743 5c3f
00000010: 6228 f8bd ff71 733f 1009 82be 503d 1d3f
00000020: 58a3 f8be d0ad a4be 2249 cc3c e06a 79be
00000030: 4236 513f e873 433f a46a d6bd d319 403f
00000040: e20c 1fbf 4e12 6dbe a82d b73d 4460 f03e
00000050: 0e67 e6bd f0f4 d33d ad14 913f 6cc2 813e
00000060: 3da1 7abd eb15 b2be 1464 ba3e 44e3 463f
00000070: bad2 3d3c 00c1 5abc 8540 053e 5f7a d1bc

conv_block_1.1.running_mean f4 [32]
-0.20261331 0.22642215 -0.38246965 0.15514599 0.08254768 -0.46591485 -0.19772889 0.26733953
-0.5630721 0.0123207625 -0.27333403 -0.33323023 -0.2441997 0.18141985 -0.026979266 -0.7394733
-0.39679125 -0.46161956 -0.11067719 0.22264497 0.06203351 -0.086320646 -0.11283786 0.27137133
0.12667021 0.47756645 -0.07000776 0.11158279 0.15092675 -0.60121936 -0.28333518 0.032534454
00000000: dd79 4fbe 35db 673e 10d3 c3be 97de 1e3e
00000010: c20e a93d 648c eebe 7179 4abe bae0 883e
00000020: 7e25 10bf 06dd 493c 70f2 8bbe 279d aabe
00000030: 7c0f 7abe 20c6 393e 9f03 ddbc 1f4e 3dbf
00000040: 3928 cbbe 6659 ecbe b9aa e2bd 0bfd 633e
00000050: da16 7e3d e1c8 b0bd 8917 e7bd 2ff1 8a3e
00000060: d6b5 013e 9783 f43e 3a60 8fbd 8585 e43d
00000070: 8b8c 1a3e 83e9 19bf 4f11 91be d942 053d

conv_block_1.1.running_var f4 [32]
0.10929147 0.023134943 0.08187506 0.11736075 0.13826129 0.14911622 0.16066651 0.24864201
0.2183002 0.034561213 0.13554898 0.13813904 0.17738357 0.13035662 0.06438423 0.2794821
0.12959942 0.16056962 0.28969914 0.13226153 0.07533676 0.0754565 0.17708232 0.1376949
0.08521045 0.039279807 0.11883208 0.25461802 0.1406943 0.20576295 0.13781136 0.27771646
00000000: 35d4 df3d 7e85 bd3c 1dae a73d d55a f03d
00000010: 5e94 0d3e ecb1 183e c385 243e 039c 7e3e
00000020: 168a 5f3e 0f90 0d3d 5acd 0a3e 5274 0d3e
00000030: 0aa4 353e 357c 053e e1db 833d 4718 8f3e
00000040: b6b5 043e 5d6c 243e 7253 943e 916f 073e
00000050: 294a 9a3d f088 9a3d 1155 353e e4ff 0c3e
00000060: d182 ae3d dde3 203d 3c5e f33d 4b5d 823e
00000070: 2b12 103e 86b3 523e 6c1e 0d3e da30 8e3e

conv_block_1.3.weight f4 [32, 32, 3, 3]
-0.05849525 -0.048407607 -0.09596733 -0.18613721 -0.10930616 -0.03408919 -0.116315626 -0.0814467
-0.20022453 0.026315464 -0.025113277 -0.031810533 -0.058553275 0.19524364 -0.047624722 0.09156959
0.11553401 -0.037061088 -0.11130586 -0.105766684 -0.13242558 -0.094229534 -0.14821286 -0.049815696
-0.07002151 -0.06815961 -0.085457325 -0.34081948 -0.011356197 0.13180216 0.06286657 -0.065652624
-0.16430461 -0.03899523 -0.11653264 -0.045440555 0.014803164 -0.076151 0.008514726 0.10619319
-0.060065445 0.06602625 -0.052212466 0.040693164 -0.0030844419 0.045027953 0.049868952 -0.038491745
0.11200445 -0.14260094 0.017888775 -0.1252994 -0.09990325 -0.1603322 -0.012256757 0.067704216
0.0102820285 0.08671713 0.08641609 -0.07017425 0.19364597 0.09870861 -0.2082465 -0.017398734
-0.15725827 -0.17573154 -0.27917477 -0.3468381 -0.3636323 -0.07919872 -0.07219553 -0.14703569
0.093644045 0.045365665 -0.068473116 -0.0833281 0.033438902 -0.014998682 -0.065523945 -0.12075629
-0.010515181 -0.0010524138 0.0277711 -0.111469656 9.506135e-05 0.09389377 0.048830036 0.040409368
0.074723564 0.04736864 -0.096345685 -0.18002188 0.121371925 0.022380775 0.0048819627 0.052325368
0.015067175 0.13055436 -0.109231174 -0.013267345 -0.06699264 -0.13263623 0.022058079 -0.050630465
-0.11990573 -0.119257316 -0.06380531 0.0046454184 0.1557249 0.2867303 0.0028876844 -0.026529532
-0.36802375 -0.20823334 -0.16822053 -0.05630261 -0.10461051 0.2546368 0.101395994 -0.34960917
-0.015792511 -0.021915259 -0.060069457 -0.012944485 -0.09499833 -0.07890091 0.090027645 0.16674747
0.034167968 -0.084184825 0.16222933 -0.03578532 -0.06731833 0.05666432 -0.17326905 0.4265609
0.04006477 0.11115965 -0.15514965 -0.27986693 0.22046436 -0.11222775 0.14603962 -0.38363716
0.15261747 0.18399438 0.14802943 0.10843156 -0.028125238 -0.019703384 0.027490249 -0.21147314
-0.23415062 0.15562207 0.3006556 0.23455358 0.10226422 0.13725759 0.09870309 0.13514702
0.0076443884 -0.079999834 -0.03542691 0.19249974 0.17619966 0.07398985 0.1218649 -0.024962882
-0.06941225 0.16262066 0.07508226 -0.08440145 -0.08991804 0.032816842 -0.13884771 0.057185758
-0.026118381 0.041147362 -0.10611 -0.02549469 -0.13554144 0.0071887393 0.09302182 -0.11090163
-0.15595181 -0.037410237 0.016514653 0.07848823 0.07974208 0.04609082 0.012960575 -0.002559984
-0.073930345 0.05581928 -0.11509784 -0.040572397 0.157729 -9.254405e-06 -0.12071153 -0.07905432
0.09674416 0.047062654 -0.12405469 -0.09612432 -0.22037062 0.26934347 -0.060071483 0.04667797
0.18089445 -0.06104917 0.20204507 -0.0995035 -0.063496746 0.060480982 -0.12214276 -0.00943598
-0.055118356 -0.082152255 -0.16579974 0.08619082 -0.017523844 -0.1534279 -0.028535059 0.1712301
0.14016017 0.09188381 -0.101876326 0.025314871 -0.04433629 -9.26938e-05 0.09209857 -0.11942561
-0.09487208 0.052373864 0.005232943 -0.13255425 -0.0509575 0.06384327 -0.037045054 -0.15973856
-0.033640392 -0.008827901 -0.024173204 0.1974086 0.11109959 -0.04752215 -0.13210596 -0.015079807
-0.1140902 -0.099883236 0.059183992 -0.1722793 -0.0047002034 -0.098122776 0.1405737 -0.29030415
00000000: b798 6fbd 0e47 46bd 858a c4bd c19a 3ebe
00000010: e8db dfbd 1ba1 0bbd e336 eebd 87cd a6bd
00000020: a907 4dbe 8793 d73c 5cba cdbc c34b 02bd
00000030: 8fd5 6fbd f3ed 473e 2412 43bd d688 bb3d
00000040: 189d ec3d 5ecd 17bd 54f4 e3bd 349c d8bd
00000050: 929a 07be 6afb c0bd 1dc5 17be 8b0b 4cbd
00000060: 7067 8fbd 4497 8bbd 4004 afbd e47f aebe
00000070: 580f 3abc 25f7 063e 30c0 803d e274 86bd
00000080: 783f 28be 76b9 1fbd aaa8 eebd e01f 3abd
00000090: f888 723c 0ef5 9bbd 5981 0b3c d17b d93d
000000a0: 2f07 76bd c538 873d bddc 55bd e0ad 263d
000000b0: 5924 4abb 3b6f 383d 6343 4c3d 85a9 1dbd
000000c0: 9762 e53d fb05 12be 7b8b 923c 7c4e 00be
000000d0: 139a ccbd 202e 24be 91d0 48bc 82a8 8a3d
000000e0: f475 283c c098 b13d ebfa b03d 84b7 8fbd
000000f0: 214b 463e bd27 ca3d 923e 55be ca87 8ebc
00000100: 5008 21be f8f2 33be ffef 8ebe c394 b1be
00000110: 032e babe f032 a2bd 40db 93bd 8690 16be
00000120: 73c8 bf3d 59d1 393d a23b 8cbd eca7 aabd
00000130: 3bf7 083d 08bd 75bc 6b31 86bd 134f f7bd
00000140: de47 2cbc 26f1 89ba 3880 e33c 344a e4bd
00000150: ac5b c738 604b c03d 0102 483d 4b84 253d
00000160: ab08 993d 9e05 423d e350 c5bd a857 38be
00000170: d891 f83d e357 b73c dff8 9f3b 2053 563d
00000180: 50dc 763c 0bb0 053e 98b4 dfbd 475f 59bc
00000190: 7033 89bd cbd1 07be 25b3 b43c e461 4fbd
000001a0: 2391 f5bd 2e3d f4bd 5cac 82bd 9838 983b
000001b0: 5976 1f3e 50ce 923e 4e3f 3d3b 7654 d9bc
000001c0: 9c6d bcbe 1f3b 55be 0142 2cbe 919d 66bd
000001d0: 093e d6bd c15f 823e b4a8 cf3d f9ff b2be
000001e0: 4c5f 81bc a187 b3bc 640b 76bd 1b15 54bc
000001f0: 7c8e c2bd cd96 a1bd 6a60 b83d d9bf 2a3e
00000200: b6f3 0b3d 1869 acbd 721f 263e a193 12bd
00000210: 31de 89bd d918 683d 716d 31be 3166 da3e
00000220: f51a 243d aca7 e33d 8ddf 1ebe b84a 8fbe
00000230: 69c1 613e aad7 e5bd 698b 153e 176c c4be
00000240: c147 1c3e 0669 3c3e 0795 173e 5e11 de3d
00000250: e666 e6bc fe68 a1bc 3b33 e13c 6a8c 58be
00000260: 2ec5 6fbe 645b 1f3e 88ef 993e d02e 703e
00000270: e76f d13d 418d 0c3e d824 ca3d fb63 0a3e
00000280: c77d fa3b f4d6 a3bd cf1b 11bd a71e 453e
00000290: af6d 343e fe87 973d 4e94 f93d f57e ccbc
000002a0: 0228 8ebd 0886 263e bac4 993d abda acbd
000002b0: f326 b8bd f46a 063d 182e 0ebe 9d3b 6a3d
000002c0: 37f6 d5bc 238a 283d 3350 d9bd 3dda d0bc
000002d0: 60cb 0abe 848f eb3b 3982 be3d 6520 e3bd
000002e0: d5b1 1fbe 7a3b 19bd bd49 873c 70be a03d
000002f0: d14f a33d bac9 3c3d 9758 543c 68c5 27bb
00000300: cb68 97bd c2a2 643d 6bb8 ebbd 3e2f 26bd
00000310: b683 213e 5e43 1bb7 9b37 f7bd 3be7 a1bd
00000320: cd21 c63d c5c4 403d 6310 febd d4dc c4bd
00000330: d6a8 61be 63e7 893e 840d 76bd 6631 3f3d
00000340: 653c 393e b20e 7abd e7e4 4e3e 7ec8 cbbd
00000350: 950a 82bd e8ba 773d fc25 fabd 5e99 1abc
00000360: c9c3 61bd 713f a8bd 68c7 29be d084 b03d
00000370: 2a8e 8fbc 341c 1dbe 5bc2 e9bc f156 2f3e
00000380: 2686 0f3e 942d bc3d 89a4 d0bd 2261 cf3c
00000390: f899 35bd 9b64 c2b8 2d9e bc3d 6a95 f4bd
000003a0: 4b4c c2bd fa85 563d 1c79 ab3b 4dbc 07be
000003b0: d0b8 50bd 43c0 823d 8ebc 17bd 8192 23be
000003c0: 82ca 09bd e7a2 10bc e206 c6bc 7b25 4a3e
000003d0: 2f88 e33d 96a6 42bd c946 07be 4b11 77bc
000003e0: 1fa8 e9bd 958f ccbd ea6a 723d fc69 30be
000003f0: 2a04 9abb 98f4 c8bd 8df2 0f3e bfa2 94be

conv_block_1.3.bias f4 [32]
0.02615591 -0.093312055 0.03940434 -0.053591967 0.04999672 0.011181063 -0.0231271 -0.013047038
-0.029542014 0.014975298 0.07766502 -0.0441598 0.021141851 -0.06802859 0.07769609 -0.054835476
0.011439414 -0.015962454 -0.0044880407 -0.02905498 0.028471284 0.090228125 -0.0020076998 -0.018017584
0.09192124 -0.031531442 -0.005366193 0.03995489 0.08059259 0.024462208 0.0532604 0.057843372
00000000: eb44 d63c 641a bfbd 7266 213d 4083 5bbd
00000010: 5cc9 4c3d c730 373c 0b75 bdbc 3ec3 55bc
00000020: 1802 f2bc f45a 753c d70e 9f3d e8e0 34bd
00000030: ad31 ad3c 9352 8bbd 211f 9f3d 2a9b 60bd
00000040: 616c 3b3c b1c3 82bc 6a10 93bb b604 eebc
00000050: 9c3c e93c 86c9 b83d 9d93 03bb 9d99 93bc
00000060: 3441 bc3d 1d27 01bd e4d6 afbb bda7 233d
00000070: ba0d a53d f864 c83c 9427 5a3d 2ced 6c3d

conv_block_1.4.weight f4 [32]
1.0206957 0.9913797 0.8671132 0.9333004 0.8250699 1.056488 1.292791 1.0269537
0.97340083 1.239238 0.83374584 0.9563989 1.0991474 0.9083637 0.8099873 0.96943533
1.1643976 0.84007376 0.9470018 1.038523 1.1803864 0.9691003 1.3341358 1.3566275
0.8713335 1.1339105 0.8271485 0.97034234 1.0463759 1.222714 1.0998001 1.2275978
00000000: 28a6 823f 0fcb 7d3f 21fb 5d3f c6ec 6e3f
00000010: c837 533f 003b 873f 2d7a a53f 3873 833f
00000020: cc30 793f 5a9f 9e3f 5e70 553f 8fd6 743f
00000030: ddb0 8c3f 868a 683f 545b 4f3f ea2c 783f
00000040: fb0a 953f 130f 573f b66e 723f 52ee 843f
00000050: e716 973f f516 783f f6c4 aa3f f8a5 ad3f
00000060: b60f 5f3f fb23 913f 01c0 533f 5b68 783f
00000070: a5ef 853f e481 9c3f 40c6 8c3f ed21 9d3f

conv_block_1.4.bias f4 [32]
-0.09781155 -0.38702196 -0.32640007 -0.13022375 -0.1548388 -0.31035483 -0.42051727 -0.38108638
0.079470076 -0.3663141 -0.46184424 -0.2939651 -0.2784822 -0.06466668 -0.251101 -0.8129902
-0.51989514 -0.25905326 -0.23045704 -0.2977759 -0.550655 -0.23524271 -0.35140282 -0.40022612
-0.06307588 -0.26898208 -0.45899418 -0.449101 -0.5639167 -0.41509977 -0.09514162 -0.2806375
00000000: 6c51 c8bd be27 c6be e91d a7be 6059 05be
00000010: 108e 1ebe d4e6 9ebe 0a4e d7be c11d c3be
00000020: 35c1 a23d 868d bbbe d976 ecbe 9882 96be
00000030: 3895 8ebe f76f 84bd 4f90 80be 2020 50bf
00000040: d917 05bf a1a2 84be eefc 6bbe 1576 98be
00000050: baf7 0cbf 77e3 70be 12eb b3be 70ea ccbe
00000060: ed2d 81bd 05b8 89be 4901 ebbe 91f0 e5be
00000070: d85c 10bf f587 d4be 9cd9 c2bd b8af 8fbe

conv_block_1.4.running_mean f4 [32]
-3.9362504 -1.8982741 1.7113925 -4.486714 -0.85803545 -4.598598 -4.228101 -2.3353672
-2.8123868 -4.8508563 5.2270093 -3.4399624 -1.4542829 -2.3750877 -3.4647465 7.5687766
-1.3257737 -1.0419909 1.7929537 -2.091824 -4.053606 -3.023687 -4.8648734 -2.965796
-2.3827453 -1.4988565 -0.62193 0.23730248 -2.9297607 -2.216916 -0.37374333 -3.614895
00000000: 87eb 7bc0 a5fa f2bf e90e db3f 2993 8fc0
00000010: 36a8 5bbf b727 93c0 9a4c 87c0 a876 15c0
00000020: 25fe 33c0 373a 9bc0 a943 a740 5828 5cc0
00000030: f125 babf 7001 18c0 68be 5dc0 6b33 f240
00000040: f4b2 a9bf f55f 85bf 827f e53f 72e0 05c0
00000050: 24b7 81c0 1684 41c0 0bad 9bc0 9acf 3dc0
00000060: e67e 18c0 88da bfbf ce36 1fbf 6cff 723e
00000070: 3381 3bc0 f4e1 0dc0 495b bfbe 715a 67c0

conv_block_1.4.running_var f4 [32]
8.327933 7.1195846 5.1378565 5.221787 11.618699 7.630288 5.662622 6.066847
10.008703 9.007862 2.9911306 9.531031 4.6887794 6.492564 10.614565 3.8867652
2.9098947 8.813631 4.3769627 5.911485 5.050727 5.3964815 6.121372 6.899118
3.578858 6.8175993 2.6928582 11.295502 4.9062266 7.0615315 9.212865 8.178909
00000000: 373f 0541 a3d3 e340 5269 a440 e118 a740
00000010: 31e6 3941 522b f440 3334 b540 9c23 c240
00000020: a623 2041 3420 1041 af6e 3f40 1a7f 1841
00000030: 7b0a 9640 16c3 cf40 42d5 2941 c3c0 7840
00000040: b73b 3a40 a204 0d41 1410 8c40 e32a bd40
00000050: 8e9f a140 faaf ac40 48e2 c340 93c5 dc40
00000060: 020c 6540 c629 da40 ca57 2c40 60ba 3441
00000070: cfff 9c40 11f8 e140 e567 1341 d0dc 0241

conv_block_2.0.weight f4 [32, 32, 3, 3]
0.022542534 0.17338003 -0.028894652 0.29601753 0.15254189 -0.057261158 0.09266414 0.07778129
-0.17320557 -0.12052277 -0.06264991 -0.0346912 -0.2685128 -0.008799227 -0.01653093 -0.0863827
0.01918748 0.04993477 0.012922648 0.10217891 0.031947922 -0.14078225 -0.09459245 0.054716833
-0.12316575 -0.16251655 -0.046929605 0.061214317 0.12164677 0.15595993 0.04912976 0.13437079
-0.13192196 0.021336513 -0.0671984 -0.27114615 -0.23670067 -0.023096597 0.031095533 -0.23320638
-0.08494113 0.000984895 -0.21624763 0.043281995 0.007615494 -0.07110459 0.14869379 -0.2148878
-0.009594846 0.1312175 -0.10926929 0.19780096 0.09911152 -0.044590898 -0.07099672 -0.042353068
-0.13291465 -0.101889394 0.018250288 0.12949337 0.0457048 -0.0092113605 0.021120459 -0.07833846
0.08615613 0.0030825469 0.073527366 0.11323308 -0.011306677 0.11560236 0.024328182 -0.09155736
-0.03183874 0.06607441 -0.031683855 0.054246772 0.042371187 -0.04165407 0.22960775 -0.080408715
-0.16900165 -0.013039875 0.012402474 -0.25537834 -0.049130306 -0.14607322 -0.114211924 -0.22141355
-0.20029622 -0.20173143 0.043139976 0.0045120474 0.013743507 -0.21721154 -0.19027774 0.24591547
-0.18268678 -0.12409112 0.17103401 -0.05659741 -0.09686621 0.05616689 0.050973363 -0.15666974
-0.038622107 -0.15243363 -0.17142564 -0.17122929 0.038102034 -0.0146564245 -0.23835695 -0.26800036
-0.24754441 -0.045443792 -0.1503538 -0.26821303 -0.057942525 0.13079026 0.13371164 -0.028015452
-0.084369496 -0.020150086 0.04465151 -0.24764492 -0.21458384 0.024309162 -0.05862739 0.069976434
-0.111783035 -0.16400874 0.095819764 -0.01707256 -0.04809403 -0.039741945 -0.13479155 -0.0010975578
-0.13964735 -0.028856412 -0.25425538 -0.27616456 0.010355713 -0.0972459 -0.08800793 0.024658253
0.06416965 0.08972899 -0.07361771 -0.061696187 0.16348155 0.08134613 -0.06265967 0.18806823
-0.111271866 -0.102271244 0.05407451 -0.12179153 -0.11536284 -0.30362505 -0.13685723 -0.0316169
-0.15041229 -0.032170903 0.27180773 0.2891626 0.06469615 0.30309182 -0.059329193 -0.1573757
0.063792996 -0.1810299 -0.17013127 0.17738949 -0.01441661 -0.11811485 0.060547926 -0.038481507
0.0070213266 -0.12982832 -0.071627714 -0.13850066 -0.022307238 -0.063372925 0.07599662 0.13119896
-0.17046401 -0.20402299 0.044030625 -0.20924367 0.033780873 -0.05018156 -0.07611241 -0.075725
-0.26440525 -0.009391413 0.30022094 0.08807521 0.2608533 0.11260113 0.039458994 0.008637007
-0.02023517 0.057122923 0.17523065 0.066291794 0.13415219 0.17286503 0.16963561 0.052310966
0.4372938 0.11853261 0.22166158 0.38755575 0.30576003 0.2799541 0.11783394 -0.044221774
-0.03707937 0.0076613724 0.08967287 -0.112507954 -0.0033652429 0.04398714 -0.11072899 -0.0045082355
-0.03372408 0.13094261 0.002190627 -0.26929262 0.07724844 -0.036204956 0.046148665 3.2774067e-06
-0.09231829 -0.0979595 0.18428725 0.12764241 -0.20505287 -0.18579023 -0.09523755 -0.15096201
-0.08213148 0.1600437 -0.14370668 0.13874964 0.050123796 -0.030617492 0.30168 0.2603828
-0.058213405 0.18772607 0.19999889 -0.077126086 0.08325084 0.04949605 0.26636118 0.1583898
00000000: 1fab b83c 898a 313e 7ab4 ecbc 9c8f 973e
00000010: f133 1c3e ad8a 6abd b2c6 bd3d cc4b 9f3d
00000020: cd5c 31be a4d4 f6bd 994e 80bd 5c18 0ebd
00000030: 827a 89be a22a 10bc df6b 87bc 6ae9 b0bd
00000040: 102f 9d3c 6788 4c3d 84b9 533c 2d43 d13d
00000050: d3db 023d 3929 10be b0b9 c1bd c21e 603d
00000060: 533e fcbd bd6a 26be 4239 40bd ddbb 7a3d
00000070: f121 f93d f6b3 1f3e 4a3c 493d 7f98 093e
00000080: 8d16 07be e9c9 ae3c 519f 89bd abd3 8abe
00000090: a961 72be 1335 bdbc 0fbc fe3c a7cd 6ebe
000000a0: 9df5 adbd 9817 813a 0570 5dbe 7648 313d
000000b0: 658b f93b 499f 91bd 2f43 183e 8c0b 5cbe
000000c0: b333 1dbc e15d 063e 94c8 dfbd 568c 4a3e
000000d0: fbfa ca3d f2a4 36bd ba66 91bd 697a 2dbd
000000e0: c71a 08be 63ab d0bd a181 953c e999 043e
000000f0: f534 3b3d 3feb 16bc d004 ad3c ea6f a0bd
00000100: a072 b03d 8e04 4a3b 8495 963d bfe6 e73d
00000110: a43f 39bc eec0 ec3d e54b c73c 6d82 bbbd
00000120: 5769 02bd 0552 873d eec6 01bd dd31 5e3d
00000130: 698d 2d3d 759d 2abd 4b1e 6b3e 53ad a4bd
00000140: c50e 2dbe 33a5 55bc bf33 4b3c f3c0 82be
00000150: dc3c 49bd 3894 15be f1e7 e9bd 3cba 62be
00000160: 741a 4dbe af92 4ebe 8bb3 303d ccd9 933b
00000170: 722c 613c b46c 5ebe 2bd8 42be 44d1 7b3e
00000180: 3e12 3bbe 7c23 febd 8a23 2f3e b0d2 67bd
00000190: cb61 c6bd 410f 663d 72c9 503d 086e 20be
000001a0: 3732 1ebd 9017 1cbe 348a 2fbe bb56 2fbe
000001b0: e110 1c3d 8021 70bc d813 74be 5837 89be
000001c0: 487c 7dbe 4523 3abd 59f6 19be 3853 89be
000001d0: 2455 6dbd e2ed 053e b4eb 083e a980 e5bc
000001e0: eac9 acbd cb11 a5bc 80e4 363d a196 7dbe
000001f0: debb 5bbe 0224 c73c 4623 70bd ce4f 8f3d
00000200: 81ee e4bd e8f1 27be 273d c43d c1db 8bbc
00000210: 3ffe 44bd 73c8 22bd cc06 0abe eedb 8fba
00000220: b7ff 0ebe 4864 ecbc c32d 82be 7165 8dbe
00000230: 02ab 293c dc28 c7bd 803d b4bd 1b00 ca3c
00000240: 616b 833d d5c3 b73d e2c4 96bd 24b5 7cbd
00000250: b567 273e cd98 a63d b753 80bd f594 403e
00000260: 81e2 e3bd 9673 d1bd 3c7d 5d3d d66d f9bd
00000270: 5a43 ecbd be74 9bbe 4d24 0cbe b980 01bd
00000280: ae05 1abe a3c5 03bd 622a 8b3e 1f0d 943e
00000290: 6a7f 843d da2e 9b3e 2b03 73bd 1827 21be
000002a0: e7a5 823d e75f 39be e436 2ebe 97a5 353e
000002b0: a533 6cbc 33e6 f1bd 1a01 783d c99e 1dbd
000002c0: 2813 e63b b7f1 04be 8db1 92bd 1ed3 0dbe
000002d0: abbd b6bc aac9 81bd 1ea4 9b3d 0559 063e
000002e0: 1e8e 2ebe 67eb 50be 7559 343d f943 56be
000002f0: d05d 0a3d 2e8b 4dbd d3e0 9bbd b515 9bbd
00000300: 2060 87be 71de 19bc 8fb6 993e c760 b43d
00000310: 908e 853e 6c9b e63d c19f 213d 3c82 0d3c
00000320: 3ac4 a5bc baf9 693d aa6f 333e fec3 873d
00000330: 315f 093e 8803 313e f5b4 2d3e 0644 563d
00000340: f9e4 df3e 3ac1 f23d 41fb 623e b56d c63e
00000350: 948c 9c3e 2556 8f3e ec52 f13d e421 35bd
00000360: 8ae0 17bd 400c fb3b 69a6 b73d 926a e6bd
00000370: 688b 5cbb dc2b 343d e1c5 e2bd d2b9 93bb
00000380: 4322 0abd d215 063e 9f90 0f3b b9e0 89be
00000390: 6e34 9e3d a64b 14bd 6206 3d3d 6bf1 5b36
000003a0: 5f11 bdbd fe9e c8bd ccb5 3c3e b1b4 023e
000003b0: 61f9 51be cb3f 3ebe e80b c3bd c995 1abe
000003c0: 8d34 a8bd 7fe2 233e d827 13be 6314 0e3e
000003d0: 9c4e 4d3d 89d1 fabc cd75 9a3e e550 853e
000003e0: 2e71 6ebd 433b 403e 82cc 4c3e 48f4 9dbd
000003f0: 6b7f aa3d 5fbc 4a3d 7e60 883e f030 223e

conv_block_2.0.bias f4 [32]
0.087807536 -0.04449402 0.05068064 0.050061293 -0.05334722 -0.012709375 0.047247518 0.012041476
-0.052923445 -0.0367056 0.019011704 0.017348075 0.008711007 -0.07836714 -0.017218914 0.014707656
-0.039781164 0.0148450965 -0.035917968 0.014763495 0.026809057 0.07977622 0.023251597 0.0352267
-0.025837366 0.0056285583 0.07318982 -0.022594811 0.026019506 -0.0021849035 -0.038662378 -0.01235967
00000000: 70d4 b33d 5d3f 36bd 8196 4f3d 120d 4d3d
00000010: 9d82 5abd fb3a 50bc 9d86 413d 9c49 453c
00000020: 41c6 58bd 9c58 16bd 6fbe 9b3c 8d1d 8e3c
00000030: 9db8 0e3c f37e a0bd ae0e 8dbc 61f8 703c
00000040: 93f1 22bd d938 733c b81e 13bd 96e2 713c
00000050: ab9e db3c b761 a33d 227a be3c df49 103d
00000060: e2a8 d3bc c56f b83b 8be4 953d c118 b9bc
00000070: dc26 d53c 9930 0fbb 715c 1ebd 3780 4abc

conv_block_2.1.weight f4 [32]
0.99890035 1.0055697 1.008995 1.200551 0.78262967 1.1837636 1.1559087 0.8587071
1.1557988 0.9832796 0.98324335 0.9931859 0.9881673 0.97348595 1.1022335 1.0547247
0.80277914 0.97567517 0.8904769 0.81876904 1.3588845 1.2868677 1.2564193 1.2120016
1.0937296 1.3979031 1.1392517 1.0860051 1.2368419 1.095982 0.83954155 0.9145709
00000000: efb7 7f3f 82b6 803f c026 813f a8ab 993f
00000010: 6b5a 483f 9185 973f d1f4 933f 3ad4 5b3f
00000020: 37f1 933f 36b8 7b3f d6b5 7b3f 6e41 7e3f
00000030: 88f8 7c3f 6036 793f fd15 8d3f 3801 873f
00000040: ef82 4d3f d9c5 793f 4bf6 633f d99a 513f
00000050: edef ad3f 15b8 a43f 59d2 a03f de22 9b3f
00000060: 55ff 8b3f 7dee b23f 00d3 913f 3702 8b3f
00000070: d650 9e3f 2349 8c3f 32ec 563f 5221 6a3f

conv_block_2.1.bias f4 [32]
-0.29553416 -0.5641212 -0.22470738 -0.24393319 -0.06105442 -0.24986999 -0.4379299 -0.29912284
-0.38455814 -0.20450065 -0.40514314 -0.6352033 -0.2818591 -0.3238242 -0.6353828 -0.3740308
-0.21485549 -0.48485267 -0.20005842 0.08810326 -0.2293264 -0.49762776 -0.18094213 -0.1922349
-0.391814 -0.7535337 -0.24457365 -0.14512902 -0.35579285 -0.27608907 -0.41352314 -0.24576476
00000000: 4150 97be 3f6a 10bf b119 66be 9fc9 79be
00000010: 3314 7abd ebdd 7fbe 5938 e0be a126 99be
00000020: cee4 c4be 9e68 51be ec6e cfbe af9c 22bf
00000030: d64f 90be 49cc a5be 72a8 22bf f780 bfbe
00000040: 1403 5cbe 9c3e f8be 1ddc 4cbe 7b6f b43d
00000050: 8ad4 6abe 11c9 febe e548 39be 3ad9 44be
00000060: d89b c8be 96e7 40bf 8471 7abe b49c 14be
00000070: 7b2a b6be 8c5b 8dbe 4eb9 d3be c2a9 7bbe

conv_block_2.1.running_mean f4 [32]
-0.036727726 -0.6007567 -0.85767335 -3.35129 0.5135133 -1.3670149 -0.3801307 0.98188144
-2.7233891 0.74024826 -1.372399 1.257324 -0.9874092 -0.035734795 -0.7413129 -1.4547923
1.3378185 0.93630725 3.5779681 2.877548 -6.942622 -0.9479617 -3.4452302 -4.599158
-0.670676 -2.4230547 -0.14833644 -2.2233684 -1.6549553 -1.1856213 1.3531395 2.6909292
00000000: d06f 16bd 31cb 19bf 7b90 5bbf 897b 56c0
00000010: 9c75 033f 58fa aebf 7ea0 c2be 955c 7b3f
00000020: 024c 2ec0 e980 3d3f c5aa afbf feef a03f
00000030: d9c6 7cbf a65e 12bd afc6 3dbf a236 babf
00000040: a33d ab3f d5b1 6f3f 6efd 6440 bf29 3840
00000050: f629 dec0 9ead 72bf a77e 5cc0 4d2c 93c0
00000060: 6cb1 2bbf 5413 1bc0 82e5 17be ab4b 0ec0
00000070: 93d5 d3bf 70c2 97bf ad33 ad3f 2f38 2c40

conv_block_2.1.running_var f4 [32]
7.1354475 6.9137526 9.687324 9.158569 5.334366 9.5963745 12.113521 5.7202363
7.1668544 7.9697304 7.4588284 6.306378 8.35937 8.012171 8.687666 6.595069
5.549555 6.3967304 5.0850773 6.029655 13.364554 8.422556 9.946212 9.6385355
8.1404 11.011934 9.703858 8.889835 9.208782 9.989266 6.0598207 5.8352103
00000000: 9655 e440 763d dd40 47ff 1a41 8089 1241
00000010: 20b3 aa40 c08a 1941 fbd0 4141 2d0c b740
00000020: df56 e540 0808 ff40 b9ae ee40 d9cd c940
00000030: fbbf 0541 da31 0041 ae00 0b41 ce0a d340
00000040: f495 b140 04b2 cc40 f4b8 a240 eff2 c040
00000050: 37d5 5541 cac2 0641 af23 1f41 7137 1a41
00000060: 143f 0241 e230 3041 0143 1b41 c43c 0e41
00000070: 2c57 1341 09d4 1f41 0dea c140 0bba ba40

conv_block_2.4.weight f4 [32, 32, 3, 3]
0.17960128 -0.0010499284 -0.110595204 0.044403665 -0.119705334 0.22619149 0.06906878 -0.072715946
0.051828325 0.12705258 -0.14276491 0.1533303 0.09081156 -0.0040204176 -0.008635235 -0.10857551
-0.09642243 -0.0782596 0.062297173 -0.14601564 -0.080907576 -0.22327344 -0.095098585 0.1935757
0.022012845 -0.2814315 -0.1329456 -0.03801875 -0.35750228 -0.104470074 0.19942965 -0.14974542
-0.013957652 0.1597433 0.09097931 -0.105509266 0.14714052 -0.08162031 -0.0041911392 -0.18223794
-0.10755405 -0.10165614 -0.1757599 -0.26587972 -0.2982202 -0.14749855 -0.30110827 -0.14188072
0.078927025 -0.08646415 -0.21317697 -0.06519465 -0.047800966 -0.060718797 0.116683304 -0.040706106
0.020345265 -0.14577429 0.07474549 -0.36846924 -0.09074425 0.17370175 -0.24093847 0.16982113
0.19328013 0.050566733 -0.16605581 -0.0104248775 0.041295994 -0.063633665 0.042485483 -0.039679404
0.011601983 0.09228466 0.009219531 0.20238851 0.23924063 0.13252033 0.1286567 0.11436348
-0.18462896 0.20332007 -0.1243501 -0.090485655 -0.028751897 -0.13431421 -0.1066732 0.041339595
-0.17294785 0.24247421 0.072225146 -0.08261723 -0.09690629 -0.09181132 -0.05519147 -0.11305534
0.07121268 0.04769217 -0.1141284 0.21596287 -0.16574505 0.022785364 -0.15091856 0.18873355
-0.04658532 0.04088578 0.006333464 0.08771956 0.13836144 0.03311701 0.1978238 -0.053879794
0.1764491 0.19163851 -0.2550186 -0.11587546 -0.050256003 -0.1259589 -0.18703032 -0.041872207
-0.26264742 0.06466828 -0.09531156 -0.0051268246 0.028444944 -0.10099941 0.050305977 0.17369248
-0.034767922 -0.15003671 -0.07625103 0.027200777 -0.44763467 -0.054423377 -0.10994001 0.21397878
0.072250016 0.15745836 -0.20750023 -0.06486505 -0.15492831 -0.11736733 -0.027802302 -0.02208021
0.04557152 -0.24804734 -0.11052614 0.06587213 0.05042931 -0.113028236 -0.2704387 -0.095938504
-0.09698489 0.094078794 0.017714322 0.044123795 -0.21748628 0.41047722 0.38103586 0.09385964
-0.0699642 0.21676132 -0.088730186 0.35738188 -0.0786467 -0.38211113 0.16915156 -0.22213286
-0.09217339 -0.1080478 -0.30684003 -0.13457385 -0.2338428 -0.06433848 -0.15796742 0.32884073
-0.032441586 -0.043095153 0.1566916 -0.10447441 -0.20925678 -0.3227999 -0.34529448 0.22455733
-0.19426413 0.1825696 -0.012347638 0.1145037 -0.16037747 0.32365584 -0.050833214 -0.21478982
-0.07884178 -0.01121897 -0.02069119 0.102655604 0.17209236 0.2018268 -0.0885511 0.061649863
0.021780327 -0.074993186 0.15753822 0.22702172 0.0025261752 0.13624811 0.13507205 -0.13965146
-0.3484326 -0.040977865 0.2959328 -0.15154982 -0.2411659 0.24627802 0.17437217 0.06928718
0.3340515 0.20928274 0.19881162 0.1387305 -0.11763261 0.007672583 -0.111692876 -0.20898402
0.017783947 -0.13255852 -0.28954288 -0.12737668 0.05821243 0.3023721 0.41770068 -0.19894694
0.00410959 0.23608759 0.123281844 0.2555199 0.13963214 0.112391986 0.29568964 0.43970305
0.041927435 -0.025957167 0.032912586 -0.14966795 -0.40718532 -0.38627985 -0.013569721 -0.3816393
0.015802398 0.048339684 -0.124059156 -0.2148259 0.28228128 -0.0106800925 0.019105481 0.020270485
00000000: 66e9 373e c09d 89ba bd7f e2bd 9ee0 353d
00000010: 1228 f5bd be9e 673e ef73 8d3d 19ec 94bd
00000020: f049 543d 121a 023e f730 12be 9e02 1d3e
00000030: 69fb b93d b5bd 83bb cd7a 0dbc d65c debd
00000040: 1f79 c5bd 9246 a0bd 522b 7f3d 2085 15be
00000050: dfb2 a5bd cba1 64be 0cc3 c2bd b538 463e
00000060: 4854 b43c ca17 90be e422 08be 8cb9 1bbd
00000070: 8a0a b7be 68f4 d5bd 4937 4c3e dd56 19be
00000080: a3ae 64bc bf93 233e 5c53 ba3d 3e15 d8bd
00000090: 01ac 163e 8d28 a7bd d355 89bb 959c 3abe
000000a0: 4c45 dcbd 1831 d0bd 67fa 33be 6321 88be
000000b0: 51b0 98be dc09 17be dd2a 9abe 2e49 11be
000000c0: 7ea4 a13d 1e14 b1bd 104b 5abe c684 85bd
000000d0: f2ca 43bd 46b4 78bd a8f7 ee3d 72bb 26bd
000000e0: 1dab a63c db45 15be 2a14 993d 00a8 bcbe
000000f0: 1fd8 b9bd dfde 313e 93b8 76be 97e5 2d3e
00000100: 3aeb 453e 101f 4f3d 890a 2abe 1bcd 2abc
00000110: fd25 293d 5e52 82bd 4205 2e3d df86 22bd
00000120: 3e16 3e3c bdff bc3d 840d 173c ef3e 4f3e
00000130: 7ffb 743e 69b3 073e 95be 033e 6637 ea3d
00000140: 600f 3dbe 2333 503e 44ab febd 8b50 b9bd
00000150: 1989 ebbc aa89 09be 7b77 dabd b553 293d
00000160: 3e19 31be 294b 783e c7ea 933d 3933 a9bd
00000170: ce76 c6bd 9307 bcbd 7310 62bd 8f89 e7bd
00000180: f4d7 913d dd58 433d 27bc e9bd 5f25 5d3e
00000190: 12b9 29be 5fa8 ba3c 658a 1abe 5e43 413e
000001a0: 40d0 3ebd d977 273d f288 cf3b 50a6 b33d
000001b0: 9fae 0d3e b4a5 073d 5292 4a3e 0fb1 5cbd
000001c0: 13af 343e e33c 443e cc91 82be 1d50 edbd
000001d0: 3dd9 4dbd 5ffb 00be e084 3fbe 3182 2bbd
000001e0: b979 86be ce70 843d b532 c3bd ecfe a7bb
000001f0: 5f05 e93c c7d8 cebd a40d 4e3d 71dc 313e
00000200: cf68 0ebd 39a3 19be 8029 9cbd 2ad4 de3c
00000210: 5f30 e5be 0ceb 5ebd 3a28 e1bd 411d 5b3e
00000220: d1f7 933d c43c 213e f17a 54be f8d7 84bd
00000230: 87a5 1ebe 485e f0bd a7c1 e3bc 8ee1 b4bc
00000240: 34a9 3a3d 1f00 7ebe 875b e2bd f8e7 863d
00000250: f78e 4e3d 597b e7bd f176 8abe 687b c4bd
00000260: 04a0 c6bd 62ac c03d a01d 913c 27bb 343d
00000270: b9b4 5ebe 122a d23e 2217 c33e 7c39 c03d
00000280: 6449 8fbd aef6 5d3e 2cb8 b5bd c2fa b63e
00000290: 8511 a1bd 12a4 c3be 1136 2d3e cc76 63be
000002a0: 67c5 bcbd 2a48 ddbd 231a 9dbe bacd 09be
000002b0: 7d74 6fbe e5c3 83bd 36c2 21be d05d a83e
000002c0: 78e1 04bd 8b84 30bd c373 203e aef6 d5bd
000002d0: 6947 56be 0746 a5be 70ca b0be 5bf2 653e
000002e0: 2ded 46be 86f3 3a3e bf4d 4abc ea80 ea3d
000002f0: fe39 24be 38b6 a53e 7d36 50bd ddf1 5bbe
00000300: cd77 a1bd c5cf 37bc 9280 a9bc 1a3d d23d
00000310: fb38 303e afab 4e3e 475a b5bd 9184 7c3d
00000320: a86c b23c 0796 99bd b351 213e 6278 683e
00000330: 308e 253b a084 0b3e 5450 0a3e cb00 0fbe
00000340: c265 b2be 68d8 27bd 8184 973e e02f 1bbe
00000350: 32f4 76be 4e30 7c3e 9e8e 323e 70e6 8d3d
00000360: cc08 ab3e 374e 563e 4695 4b3e 5e0f 0e3e
00000370: 5ee9 f0bd 4b6a fb3b 3cbf e4bd e8ff 55be
00000380: a4af 913c 6cbd 07be f73e 94be 086f 02be
00000390: 2870 6e3d 84d0 9a3e dddc d53e bfb8 4bbe
000003a0: bda9 863b f2c0 713e 317b fc3d 81d3 823e
000003b0: bafb 0e3e c52d e63d a264 973e c220 e13e
000003c0: 1abc 2b3d 20a4 d4bc 59cf 063d 8e42 19be
000003d0: 987a d0be 79c6 c5be 8953 5ebc 3a66 c3be
000003e0: 0874 813c d5ff 453d ba12 febd 52fb 5bbe
000003f0: 2c87 903e 8efb 2ebc 1983 9c3c 4a0e a63c

conv_block_2.4.bias f4 [32]
-0.040736295 -0.028181285 0.036618017 0.049787264 -0.048763976 0.004158802 0.020860123 0.030855656
0.033827964 0.05113102 0.029103812 -0.0344126 -0.060626745 0.07454518 0.02308161 -0.01488427
-0.039510332 0.005892349 -0.030256575 0.029760988 0.05546361 -0.04762523 -0.03265223 -0.028650569
0.07353985 0.023674574 -0.045864794 -0.043203387 0.035587512 0.037102614 0.019225894 -0.05175731
00000000: 1adb 26bd 70dc e6bc c6fc 153d bbed 4b3d
00000010: bcbc 47bd 8f46 883b d9e2 aa3c 00c5 fc3c
00000020: 318f 0a3d c36e 513d 1e6b ee3c 3af4 0cbd
00000030: c053 78bd 25ab 983d a515 bd3c 27dd 73bc
00000040: 96d5 21bd 9b14 c13b a3dc f7bc 51cd f33c
00000050: cf2d 633d ac12 43bd 58be 05bd 99b4 eabc
00000060: 109c 963d 2ef1 c13c b9dc 3bbd 09f6 30bd
00000070: 36c4 113d e9f8 173d 9f7f 9d3c 79ff 53bd

conv_block_2.5.weight f4 [32]
0.99648064 0.7983638 0.8836744 0.7326684 0.91967046 0.7682552 0.9155468 1.1533704
0.9089288 0.9347136 1.0446608 0.8529157 0.87420076 0.91000396 0.8349013 0.8347307
0.75345045 0.88806754 0.8923404 0.8407213 0.9004121 0.80059105 0.9847842 0.99589115
1.0085993 0.93465555 0.77111554 0.7958723 0.85289544 0.93550533 0.79076153 0.80314773
00000000: 5b19 7f3f 9261 4c3f 7c38 623f 2890 3b3f
00000010: 866f 6b3f 5fac 443f 4661 6a3f a4a1 933f
00000020: 8faf 683f 6449 6f3f 72b7 853f af58 5a3f
00000030: 9fcb 5f3f 05f6 683f 17bc 553f e9b0 553f
00000040: 21e2 403f 6558 633f 6c70 643f 8339 573f
00000050: 6881 663f 89f3 4c3f d11a 7c3f b9f2 7e3f
00000060: c819 813f 9645 6f3f d467 453f 49be 4b3f
00000070: 5b57 5a3f 477d 6f3f 596f 4a3f 179b 4d3f

conv_block_2.5.bias f4 [32]
-0.93104064 -0.8096158 -0.9177914 -0.6611569 -0.83677113 -0.6934151 -1.1241494 -1.2543111
-0.5950712 -0.94549066 -0.81105024 -0.67142916 -0.69187164 -0.92629623 -0.71455824 -0.7477408
-0.5881203 -0.9184778 -0.85707754 -0.6041764 -0.87442124 -0.63439035 -0.99895823 -0.77801305
-0.8438266 -0.77234066 -0.70974886 -0.72580564 -0.5849635 -0.74539524 -0.50600773 -0.69656634
00000000: ae58 6ebf fb42 4fbf 61f4 6abf 9441 29bf
00000010: a236 56bf a783 31bf 21e4 8fbf 448d a0bf
00000020: 9656 18bf ad0b 72bf fda0 4fbf c8e2 2bbf
00000030: 801e 31bf c021 6dbf 4aed 36bf f16b 3fbf
00000040: 0d8f 16bf 5c21 6bbf 6f69 5bbf 4eab 1abf
00000050: 12da 5fbf 6867 22bf babb 7fbf dd2b 47bf
00000060: 0505 58bf 1eb8 45bf 1ab2 35bf 66ce 39bf
00000070: 2bc0 15bf 39d2 3ebf b989 01bf 2c52 32bf

conv_block_2.5.running_mean f4 [32]
-1.6921468 -0.9286148 1.8135343 -1.0755541 -1.614712 0.51224166 0.23603328 -3.516573
-2.535815 -2.9012933 -7.688677 1.3400173 -3.629965 -1.8976794 -3.6989365 -5.379583
-1.5328249 -0.1813793 -1.0672247 -4.109815 -4.409701 -2.6356912 -5.148938 -3.9089987
-2.5816588 1.1819581 1.798917 -3.8086116 -3.4339612 -1.8646877 -2.151317 -1.1019835
00000000: 4498 d8bf b3b9 6dbf e421 e83f c2ab 89bf
00000010: e2ae cebf 4522 033f b5b2 713e 880f 61c0
00000020: cb4a 22c0 caae 39c0 a409 f6c0 b085 ab3f
00000030: 5951 68c0 29e7 f2bf 60bb 6cc0 8b25 acc0
00000040: 9b33 c4bf 7fbb 39be d29a 88bf 9b83 83c0
00000050: 451c 8dc0 2aaf 28c0 1ac4 a4c0 092d 7ac0
00000060: e639 25c0 674a 973f ea42 e63f 4bc0 73c0
00000070: 05c6 5bc0 16ae eebf 2daf 09c0 cc0d 8dbf

conv_block_2.5.running_var f4 [32]
5.473059 4.6158323 4.195363 3.5638793 6.206903 4.464367 4.329363 7.71755
4.5374002 5.3952036 7.8059955 6.8413467 6.1302514 5.5813665 4.5315285 5.869531
6.031447 5.662363 4.528147 6.4805865 4.7875566 4.6427417 7.730354 6.5247912
5.642109 4.709732 6.132718 4.893858 5.3426805 7.3398724 7.6849265 5.21171
00000000: 4d23 af40 e6b4 9340 6a40 8640 9916 6440
00000010: f39e c640 18dc 8e40 248a 8a40 2bf6 f640
00000020: 6232 9140 82a5 ac40 b7ca f940 50ec da40
00000030: 052b c440 8e9a b240 4802 9140 33d3 bb40
00000040: 9d01 c140 1432 b540 95e6 9040 f760 cf40
00000050: aa33 9940 5791 9440 0f5f f740 17cb d040
00000060: 288c b440 20b6 9640 3a3f c440 7c9a 9c40
00000070: 3df7 aa40 3ce0 ea40 ebea f540 54c6 a640

classifier.1.weight f4 [32, 512]
-0.016668158 0.06896328 0.085976064 0.016323343 0.15178023 0.069993235 0.1394053 0.0901374
-0.006105592 0.05089206 -0.029273754 -0.041839972 -0.0038848848 0.091726944 -0.012266643 -0.034911837
0.023633149 0.14653729 0.026333043 0.12168201 0.09477428 0.088413246 0.028426755 0.02368893
0.09749731 -0.0014265734 0.017772406 -0.026599806 -0.05968551 -0.08040447 -0.03944979 -0.1322374
-0.06613327 0.07153984 0.018927958 0.041709498 -0.088259615 -0.17072317 -0.24593093 0.03195051
-0.027805427 -0.15092447 -0.0121175535 -0.0044722944 -0.009366089 -0.19943714 -0.29036024 -0.14124109
-0.08457001 -0.16659953 -0.095167935 0.022031587 -0.015208204 -0.14349751 0.008083197 0.036744893
0.05262329 -0.023853969 -0.06130056 -0.017118266 0.033983983 0.043650575 0.011303698 0.067340896
0.17920093 -0.02006801 -0.0048235226 0.11735012 0.05110568 -0.08104274 -0.109981194 0.15136838
0.07592921 -0.23317114 -0.105164446 -0.0051649148 0.11629962 -0.13468207 -0.042342 -0.12264084
-0.0098360395 0.080679245 0.029311217 -0.0458488 0.00766379 -0.046391286 -0.06393479 -0.0144896535
-0.12515725 -0.0006173054 -0.033793367 0.060668357 -0.024345158 -0.052643627 -0.15719068 -0.052392095
-0.042502254 -0.037060376 0.009004627 0.021246605 -0.017853288 -0.059551187 -0.029346881 -0.08627231
-0.005333125 -0.092341475 -0.04881936 0.1101008 -0.123834066 -0.15916312 -0.050373584 -0.06716253
0.047821034 -0.005347926 -0.032868106 -0.048713773 0.13205068 0.093456216 0.05063842 -0.062529735
0.23185334 0.21821503 0.13313906 0.020754874 0.060075965 -0.021416118 -0.014867919 -0.14008184
0.18667445 -0.02599329 -0.0787853 0.01575738 0.0022759084 -0.16578342 -0.1982833 0.023223104
0.008167189 -0.09918929 -0.1751684 0.052871816 0.051446173 -0.058320917 -0.04758061 0.0015193743
0.059698027 0.03997287 -0.062259134 -0.046482373 0.07712191 -0.14808935 -0.15733628 0.016582146
-0.05585622 -0.17403963 -0.15790442 0.028049432 -0.14542799 -0.12829174 -0.07430478 -0.021434916
0.092360556 0.13135456 0.035080988 0.03707636 0.14162357 0.14144683 0.028659131 0.10894896
0.018827248 -0.13265415 -0.14608148 -0.03864252 -0.0018126674 -0.10356164 -0.09263453 0.023066858
0.009934552 0.004656754 -0.013872387 -0.16251771 0.08795021 0.047496304 -0.11405762 -0.103980735
0.13570082 0.20443021 -0.008945775 -0.084559724 0.12108539 0.2081656 0.16039816 0.1388289
-0.1656062 -0.05107175 -0.027049826 0.04700723 -0.046414264 0.08651242 -0.0266866 -0.08072162
-0.079374775 0.11471739 0.009962206 0.02836678 0.05680873 -0.009121303 -0.0019060619 -0.049268644
0.031174779 0.010905441 0.17662714 0.10959778 0.07524785 0.00493596 0.057439983 -0.057925075
-0.0076611475 -0.049939904 -0.15738381 -0.15253013 -0.07035689 -0.2684221 -0.191945 -0.1815095
0.07019275 -0.024876103 -0.060641672 -0.0416503 -0.022200465 0.053906824 0.09009461 0.07230293
-0.09489486 0.037943207 0.025150284 0.023205921 -0.073136955 0.016389972 -0.024565034 0.112741485
-0.100405976 -0.046523757 0.053496018 -0.14721414 0.19471638 0.23226492 0.16779591 0.049457535
-0.07497722 0.07842509 0.12351671 0.01570355 -0.009857025 0.0067154514 0.017510759 -0.10970117
00000000: a98b 88bc 9f3c 8d3d 3814 b03d 88b8 853c
00000010: 476c 1b3e 9d58 8f3d 43c0 0e3e f599 b83d
00000020: 6b11 c8bb 3174 503d 83cf efbc 6460 2bbd
00000030: 8d99 7ebb 56db bb3d 08fa 48bc b7ff 0ebd
00000040: 4e9a c13c df0d 163e 65b8 d73c 6b34 f93d
00000050: 0519 c23d 0112 b53d 3adf e83c 490f c23c
00000060: abac c73d dcfb baba 7097 913c d6e7 d9bc
00000070: cb78 74bd 19ab a4bd 1a96 21bd 3e69 07be
00000080: e170 87bd 7b83 923d ce0e 9b3c 94d7 2a3d
00000090: 75c1 b4bd 0ed2 2ebe 51d5 7bbe 8ade 023d
000000a0: 35c8 e3bc f28b 1abe b488 46bc 538c 92bb
000000b0: 3974 19bc 4039 4cbe 19aa 94be 81a1 10be
000000c0: 0b33 adbd 1199 2abe 68e7 c2bd 967b b43c
000000d0: d52b 79bc 03f1 12be 636f 043c d081 163d
000000e0: 858b 573d 6669 c3bc 4c16 7bbd 9b3b 8cbc
000000f0: ca32 0b3d f2ca 323d 2533 393c 06ea 893d
00000100: 7380 373e ab65 a4bc a40e 9ebb 4255 f03d
00000110: 3154 513d bcf9 a5bd d23d e1bd 5000 1b3e
00000120: c680 9b3d 6ac4 6ebe 7560 d7bd 723e a9bb
00000130: 7f2e ee3d 19ea 09be ce6e 2dbd 1f2b fbbd
00000140: 5727 21bc 293b a53d 141e f03c f4cb 3bbd
00000150: 8820 fb3b ca04 3ebd 3ef0 82bd 0366 6dbc
00000160: 3929 00be aad2 21ba ea6a 0abd 627f 783d
00000170: 7f6f c7bc d8a0 57bd 98f6 20be 1899 56bd
00000180: d816 2ebd 9fcc 17bd 2588 133c 5c0d ae3c
00000190: 0f41 92bc f2eb 73bd df68 f0bc 89af b0bd
000001a0: 7fc1 aebb 871d bdbd cff6 47bd 877c e13d
000001b0: b79c fdbd a8fb 22be 8854 4ebd 828c 89bd
000001c0: fddf 433d a83d afbb b5a0 06bd 1888 47bd
000001d0: 4b38 073e f965 bf3d 3b6a 4f3d 970f 80bd
000001e0: f66a 6d3e c373 5f3e 9b55 083e 2006 aa3c
000001f0: 3712 763d db70 afbc 9298 73bc 9d71 0fbe
00000200: 9627 3f3e e1ef d4bc 305a a1bd 9f15 813c
00000210: 6827 153b 21c3 29be c70a 4bbe 613e be3c
00000220: accf 053c c123 cbbd 585f 33be 1e90 583d
00000230: 39b9 523d eae1 6ebd e3e3 42bd be25 c73a
00000240: eb85 743d 98ba 233d 6f03 7fbd 4d64 3ebd
00000250: 18f2 9d3d bca4 17be c31c 21be 48d7 873c
00000260: 7ec9 64bd 7237 32be b2b1 21be ecc7 e53c
00000270: 13eb 14be e95e 03be 1b2d 98bd 4798 afbc
00000280: 8827 bd3d cf81 063e 15b1 0f3d 62dd 173d
00000290: c505 113e 70d7 103e 8ec6 ea3c a220 df3d
000002a0: 9a3b 9a3c 7dd6 07be 6296 15be 9e47 1ebd
000002b0: 0697 edba 2018 d4bd 2cb7 bdbd b5f6 bc3c
000002c0: 88c4 223c af97 983b 0249 63bc 0b6b 26be
000002d0: 3d1f b43d 7c8b 423d 0b97 e9bd daf3 d4bd
000002e0: 28f5 0a3e 2756 513e 4d91 12bc a62d adbd
000002f0: 9efb f73d 5d29 553e 6a3f 243e 2a29 0e3e
00000300: ac94 29be 9c30 51bd 9997 ddbc a78a 403d
00000310: e21c 3ebd 6c2d b13d db9d dabc 6051 a5bd
00000320: 3e8f a2bd f3f0 ea3d 8538 233c 7361 e83c
00000330: 45b0 683d 8571 15bc d3d4 f9ba ebcd 49bd
00000340: 4062 ff3c bcac 323c bfdd 343e cd74 e03d
00000350: 8b1b 9a3d d5bd a13b 3046 6b3d d842 6dbd
00000360: 5d0a fbbb c98d 4cbd 3929 21be dc30 1cbe
00000370: 4617 90bd 9f6e 89be 3b8d 44be a0dd 39be
00000380: 37c1 8f3d f8c8 cbbc 6763 78bd 8199 2abd
00000390: c0dd b5bc 67cd 5c3d 8683 b83d 8f13 943d
000003a0: 3d58 c2bd 566a 1b3d f807 ce3c 581a be3c
000003b0: d4c8 95bd 4344 863c 9c3c c9bc 02e5 e63d
000003c0: a6a1 cdbd b28f 3ebd a41e 5b3d 4ebf 16be
000003d0: bb63 473e dbd6 6d3e b1d2 2b3e fc93 4a3d
000003e0: a88d 99bd 559d a03d 54f6 fc3d bba4 803c
000003f0: 5c7f 21bc 4a0d dc3b b972 8f3c 02ab e0bd

classifier.1.bias f4 [32]
0.20506284 0.050891362 -0.18801567 0.17647383 -0.024662718 0.015028122 -0.0066652573 -0.34358963
0.048469555 -0.051029246 0.31118217 0.12381019 0.2545022 -0.10278053 0.08891067 -0.0059313835
-0.16779542 0.12318304 -0.112531506 -0.09347324 0.13785441 -0.39513955 0.18485807 -0.08971442
-0.22776183 -0.20800658 0.17314991 0.1688082 -0.28493744 0.042551678 0.22984315 -0.012123305
00000000: fefb 513e 7673 503d 2e87 40be 8eb5 343e
00000010: 7809 cabc 8338 763c 3b68 dabb fbea afbe
00000020: 0388 463d 0b04 51bd 4553 9f3e 3290 fd3d
00000030: 1d4e 823e 997e d2bd cc16 b63d 0d5c c2bb
00000040: 90d2 2bbe 6447 fc3d eb76 e6bd e66e bfbd
00000050: b529 0d3e bb4f cabe 6f4b 3d3e 32bc b7bd
00000060: 663a 69be adff 54be 364e 313e 0fdc 2c3e
00000070: 52e3 91be ab4a 2e3d 015c 6b3e d4a0 46bc
